result/OPD/trained_model/best_model/best_net.pth (torch, 33735 bytes, 13 tensors)

weight_ih_l0 f4 [32, 16]
00000000: ae0f 2ebe d4d1 dc3d 870d edbd 83ea 00be
00000010: 1531 0f3e 8eaf 0a3e ac96 ed3d ee6f 6ebb
00000020: 0c8d 04be e62e 813d e4e8 c6bd 2194 913d
00000030: 8dc3 58bd 5316 15be 7665 95bc 2082 273e
00000040: abeb 383d 64a2 77bd 2c8f c9bc 1e8a f8bd
00000050: ea26 a03d fcec 19bd 8621 fabd ed45 e83d
00000060: 6ada 213e bbb3 023c ae0d b2bd 86d2 df3d
00000070: 3373 44be 51b7 4c3d 5a69 1fbe 95f3 29be
00000080: f43e 103e 1c85 a5bd 030a e53d 44df af3d
00000090: 6c04 933c 68c4 253e 351f 49bd 4b5e 923b
000000a0: f523 b4bd c6e5 053d 0c7d 2ebe 25d8 fe3d
000000b0: 550a 01be ed23 83bc 4ed9 023d 3af1 8a3d
000000c0: b21f 1dbe fb5b f13c 767c 293c ab4d 28be
000000d0: 67f0 0b3e e715 743d d98c b9bd fd17 43bc
000000e0: 81f1 563d eae0 a0bd 0bb6 bfbd a515 e2bd
000000f0: c7aa f43d bba1 033e f215 263e f6b8 f93d
00000100: 240b 2ebe cb07 8fbd 71e8 c23d ea4a f03d
00000110: 351f e1bd c9b3 053e 3c8d 083d 73f9 22bd
00000120: 1e7c 1c3d 9ed6 313d 4735 3f3c 9ff2 91bd
00000130: a2a9 a7bc af9b c73d ce6e 283e e981 edbd
00000140: ff87 bcbd a188 41bd d3fa 3bbc 780a cb3d
00000150: 4830 f0bd 2209 073d fb19 09bd 557f ca3d
00000160: f60f 733d 45d4 54bc 02e3 df3d 63d9 90bd
00000170: ab00 ebbd e9b8 e4bd f200 aa3d 822f af3d
00000180: 153e 333e 3cf5 673c ef32 a2bd b6a2 1bbe
00000190: ae93 21be 25fd e1bd 16f2 293e f6be 0b3e
000001a0: 17eb 10be 461b 0dbe 3148 213e 91f4 d73c
000001b0: a38d 47ba 87b5 f8bd a9b4 0fbe 62d4 10be
000001c0: 8c67 033e c473 03bc 46b2 11bd 1aa4 16bd
000001d0: 8e82 9c3d 672b ec3d e747 02be 00a4 c83c
000001e0: a385 b2bc dcc3 813d dcac ddbc 5419 d0bd
000001f0: ef58 873d a9ca 733d ee1e 6c3c f328 8aba
00000200: 2499 1cbe 2eb0 70bd ca3d 0fbe e4ca 833d
00000210: 1df6 b83d 0201 c1bd 1a2a f33c 0bc8 c6bd
00000220: 9b2f 143e 986f 6fbd 24fa d43d 0873 9d3b
00000230: 9fd5 59bb 1390 e53d 2c44 673d 614a f43c
00000240: 60eb 813d aa91 d03d a14a 053d 066f 813c
00000250: 8490 933d a120 043e 5f3e fcbd 43de 033e
00000260: eaf4 bd3d 8d76 10be ca94 033e 848e ccbd
00000270: 1a42 0a3e 4553 27be ca9c 1a3d b4f5 01be
00000280: af9e 0e3e 69ad bd3d 2fb3 b53d 33b6 c43b
00000290: c01a 863d e960 8c3d 7bbc d4bb 4ea7 c43d
000002a0: 23bc 7cbd 46b2 94bd b1a2 043d cf93 bb3d
000002b0: d20e e03c 72a8 203d 0375 c43c dd60 e33d
000002c0: 6c49 cb3d 1ec9 b5bd 816d 16be eabc 513c
000002d0: 6ab2 16be 6c77 20be 4588 1cbe ab1b 563d
000002e0: 24d8 85bc bf8c 55bd 4781 abbc f04d 523d
000002f0: 2734 debd 8761 82bd de74 be3c cb5b f43b
00000300: eaa2 1d3e 946b 04bb 8b86 12bd 4f8c c03c
00000310: 9124 103d 32ea e3bd 4b27 a33d f308 203e
00000320: 48d0 90bd 7de2 033e 877e 17be 0f46 bc3d
00000330: 0605 01be 481c ecbd 5a6b 8d3c b74b f73d
00000340: 5f64 af3d db6a cdbd 07b3 7b3c 4769 3ebc
00000350: 48ab 283e d009 56bd 4715 073e 6014 143e
00000360: 29df 043e 9922 2a3d 49d6 5ebd 01b5 37bd
00000370: b96f c7bd ec7b c93d a4fe 28be c6ee 053e
00000380: 3b0c ab3d 9d0c fabd 67e6 1a3e a449 c83d
00000390: 3f1a f0bd cc6c 2abe 084b b93d 77d2 823d
000003a0: e942 4abd caf3 9bbd e820 2bbe 2efb f9bd
000003b0: deef 923d a73e 0e3d 8262 dabc e37a 7abd
000003c0: 0701 ee3d 5413 1abd cf92 cdbd c7a2 343e
000003d0: 5e8c 7ebd d759 b8bd b4be f4bd baae 21be
000003e0: b0f2 fd3c c795 463d 12fd 10be b2b0 dfbd
000003f0: d84a 05be c907 7dbd 6e56 773d 09b8 813d
-0.16998169 0.10782209 -0.11574846 -0.12589459 0.13983567 0.13543531 0.11601004 -0.0036382633
-0.1294443 0.06307773 -0.09712389 0.071083315 -0.052920867 -0.14559297 -0.018236857 0.16358232
0.045146625 -0.060457602 -0.024604402 -0.12135719 0.07819922 -0.03757952 -0.12213425 0.11341462
0.15805975 0.007977421 -0.086940154 0.10928826 -0.1918457 0.04997951 -0.15567532 -0.16596825
0.14086515 -0.08082029 0.1118355 0.085875064 0.017946444 0.16188204 -0.049102027 0.004466807
-0.08795921 0.032689832 -0.17039889 0.1244357 -0.12601598 -0.016008342 0.03194552 0.067842916
-0.15344122 0.029462805 0.010344615 -0.16435878 0.13665925 0.0595912 -0.09060068 -0.011907575
0.05247641 -0.07855399 -0.09360894 -0.110392846 0.11946636 0.12854664 0.16219309 0.121934816
-0.16996437 -0.06983908 0.09516991 0.11733039 -0.109922804 0.13056864 0.033337817 -0.039788675
0.038204305 0.043417566 0.011670417 -0.071263544 -0.02046663 0.09746491 0.16448519 -0.11597044
-0.09205627 -0.04724944 -0.011473375 0.09914106 -0.11727959 0.032967694 -0.033472043 0.09887568
0.059341393 -0.012990062 0.1093197 -0.07072713 -0.11474737 -0.11168081 0.083009616 0.08553983
0.17504151 0.0141575895 -0.07919871 -0.15198788 -0.15778992 -0.110346116 0.16596255 0.13647065
-0.1415218 -0.13779935 0.15750195 0.026361736 -0.0007612353 -0.121439986 -0.1403376 -0.14143518
0.12832469 -0.008023206 -0.035570405 -0.036777593 0.07642089 0.11531716 -0.12722741 0.024492264
-0.021792239 0.06336185 -0.027059965 -0.10161081 0.066087596 0.059519444 0.014411671 -0.0010540768
-0.15292794 -0.058761768 -0.13988414 0.06435183 0.090313174 -0.0942402 0.029683162 -0.09706124
0.14471285 -0.058456033 0.10399273 0.0048049726 -0.00332389 0.112091206 0.0564615 0.029820623
0.06343722 0.10184033 0.032541875 0.01580001 0.072052985 0.12903072 -0.12316584 0.12877755
0.09275229 -0.14107724 0.12849727 -0.0998812 0.13501778 -0.16340359 0.037747182 -0.12691385
0.1392772 0.09261591 0.08872067 0.006003165 0.06548071 0.06854422 -0.006492195 0.09602223
-0.06170286 -0.072605655 0.032381717 0.091590516 0.027350817 0.039223142 0.023981577 0.111024596
0.099261135 -0.08876251 -0.1469021 0.012801388 -0.14716497 -0.15670556 -0.15286358 0.05227248
-0.016338415 -0.05213618 -0.020935668 0.05134386 -0.10849791 -0.06366258 0.023249086 0.0074572316
0.15394178 -0.0020205723 -0.03577284 0.023504404 0.035191122 -0.111286536 0.07966479 0.15628414
-0.070709765 0.12879367 -0.1479436 0.0919305 -0.12599573 -0.11528832 0.017263103 0.12074988
0.08564066 -0.10030147 0.015362508 -0.01162178 0.16471589 -0.05225545 0.1319171 0.14460897
0.12975754 0.0415369 -0.054403577 -0.044850353 -0.09738106 0.09838089 -0.16503388 0.13079366
0.08351942 -0.12209437 0.15126954 0.09779671 -0.11723756 -0.16643065 0.09047514 0.06387799
-0.049380217 -0.076148584 -0.16711771 -0.12206112 0.07174657 0.03472772 -0.0266583 -0.06115235
0.1162129 -0.03761609 -0.10037767 0.1764022 -0.062145583 -0.090015106 -0.11950436 -0.15789309
0.030999511 0.048482683 -0.14159039 -0.10922374 -0.13016832 -0.061775003 0.06038516 0.0633393

weight_hh_l0 f4 [32, 32]
00000000: ba6f b43d fdc7 f2bc 815b 1f3e 61b1 663c
00000010: 5166 0f3e b81c 09be 71d5 0bbe 38a1 b5bb
00000020: 2764 48bd 76d8 d13d 4b6b f6bc 28f2 793d
00000030: f593 533d 572b abbd da7c c5bd 9fba a03d
00000040: d203 dbbd 63d8 2dbe f846 99bd 2b2d 123e
00000050: ae88 16bd 044d 00be b262 243e 007d 18be
00000060: 612c 87bd 05a6 053e 7248 0a3e 1d0f f6bd
00000070: 4135 4abc 098d 253e 1768 103e d078 9abd
00000080: f401 d7bb 7c7d f8b9 9179 2bbb eb3e 9d3d
00000090: 373d 233e 5f4e 403e de8e b23b 52e8 ae3d
000000a0: 127a 093e 9c60 53bd 0806 2cbc a432 c53d
000000b0: 3d5c 46be d179 b73c 9d22 85bd 0013 15be
000000c0: ce64 5f3d 06d3 8b3d 0be3 e4bb b722 963d
000000d0: f991 413d 18dd 703d fba9 1bbc 8fed a93d
000000e0: 188f 763d f3c3 8dbc 459d 41bd 47eb 393e
000000f0: 882e 5bbd d4ce 033e cfdc b53d 37fb edbd
00000100: 927c a2bc 8ae6 12be c8d5 473d 98c0 8e3d
00000110: 70e4 7d3d fb88 74bd 2ce3 c53d 0bd3 c33a
00000120: bd70 0ebe 31f0 d73c 8896 34bd bf11 c13d
00000130: 3b2f eeb9 8336 c6bb f9e1 d53c 70b1 d5bd
00000140: cb69 203e 6053 973b 205f 533d 95aa 69bc
00000150: 7591 133e 12ba 26be 7627 3e3d 6ceb f0bd
00000160: b7b8 9d3d c30e 3d3d 359a ebbd 10d1 0f3e
00000170: b4e1 5abc 0001 08be 1cc8 53bd 7dfb 6b3c
00000180: 9d1a 1ebc cff0 17bc 85a0 893d 6eff e03d
00000190: 9dbf 123e 4a53 ad3d 748c 0c3e 01d0 f83d
000001a0: f45f 53bd 1bce f9bc ead4 88bd ce78 293e
000001b0: fd50 a5bd d02c dc3d 6e98 38be 1d8c 1abe
000001c0: e9f2 123e afc4 31be a5de 033b afa8 153e
000001d0: c462 eb3d c6f8 75bd 29a6 afbd 5d66 5fbd
000001e0: 491d d3bd fd9e 0c3e 4163 90bd 6164 2e3e
000001f0: a9ae 0bbd c961 263e d957 823d e1f6 b73d
00000200: 81f5 1c3e 6d57 16be 2cc1 55bd e886 95bd
00000210: 85b9 6ebd 698d 243e 8bb7 b3bd 82a2 593d
00000220: 735d 443d e3c7 d4bb 7cf5 dcbd 40c5 ebbd
00000230: 8b9c 873c d644 12bd 2484 b8bc 131b 0abe
00000240: abbd 3bbe 8a93 863d 3e9a 06be 0a0e 0fbd
00000250: 7f4a 353d 8aa9 0ebe 5e6c 323e f6b9 63bb
00000260: bfec bebc bf1d ba3d 6123 243e ae48 4abd
00000270: a0aa 193e 02ad 58bd d479 1cbe 516b 24be
00000280: 4d3d cc3d ba54 13be 310c 7ebd 576d 0c3e
00000290: 5cf4 1a3e a878 753c eb05 473c 5630 17bb
000002a0: 0098 203d 148f 133e 35f4 34be 31b4 2e3d
000002b0: 159f 643d 1be0 7dbd 019d 83bd 784d 21be
000002c0: 7eeb 26be fd1a b73d c655 0abe 2d8a 02bd
000002d0: 0159 01be 97a6 1cbe 00d9 db3d 33e4 06be
000002e0: 7684 8ebd 6688 973c f4ba 9dbd 2ccf 8c3d
000002f0: bed7 85bc a2b7 023e f855 803c 8eca 99bd
00000300: 8870 15bd 41df 10be d41f 85bd f5fe e7bb
00000310: 0df2 0f3d d9db 5e3d f769 9cbd cf68 d83d
00000320: 9c22 923d a18b c2bd 749b d93d 1f3c 213c
00000330: f3f5 8bbd 413f 193d bd99 afbd ecfd 0f3e
00000340: 7123 18ba 8947 e6bd 1dfb 30be f9c7 47bd
00000350: 27e6 fabd 9549 09be 4335 273e 9b95 ecbd
00000360: de40 26bd 17c5 3cba e047 083d 4388 89bc
00000370: 85ec a8bd 259c 7b3d d921 4f3c db05 a4bc
00000380: 9c1a 1d3e c06d 3dbd cb1d 76bb 8ef6 263d
00000390: 9d92 0c3d 732f 1ebe 96d9 91bd 7774 973d
000003a0: fe06 39be 6c43 fcbd 5902 1cbe 8585 1b3e
000003b0: c06e 013e 5792 62bc 4f2f 1a3e 1a6d 0b3c
000003c0: c9c7 203d 1fc7 c8bd afcb 403c 977b 463c
000003d0: 68de 9dbd a620 05bd 04c3 12be e071 6b3d
000003e0: 6a62 cabd e0f5 293e 1862 f0bd 5faf a9bd
000003f0: ba5e bd3d 7041 12be d160 30be 11ac 05be
0.08810373 -0.029636377 0.1556225 0.014080376 0.14003874 -0.13389862 -0.1365564 -0.0055429004
-0.048923638 0.10246365 -0.030080458 0.061021954 0.051654775 -0.08357876 -0.09642954 0.07848095
-0.10694088 -0.16977076 -0.07484239 0.14275043 -0.03675144 -0.12529379 0.16053274 -0.14891434
-0.066002615 0.13051613 0.13504198 -0.120146014 -0.012341798 0.16167082 0.14102207 -0.075425744
-0.006561512 -0.0004739574 -0.0026164989 0.07678016 0.1594132 0.18779896 0.00544916 0.08540405
0.13425472 -0.051605806 -0.010499485 0.096287996 -0.19371124 0.022396954 -0.065007426 -0.14558029
0.054539494 0.06827359 -0.0069850734 0.0733084 0.04725835 0.0588046 -0.009500976 0.08297264
0.06019506 -0.01730535 -0.047269125 0.18156157 -0.053511173 0.12871867 0.088800065 -0.11620181
-0.01983479 -0.14345756 0.048787862 0.06970328 0.061985433 -0.059700947 0.0966247 0.0014940215
-0.13910194 0.02635965 -0.04408887 0.09427213 -0.00045430087 -0.006048979 0.026108729 -0.10434234
0.15665357 0.0046180934 0.05160439 -0.014261861 0.14410956 -0.16281918 0.04642435 -0.11763653
0.07701247 0.046156656 -0.11504022 0.14044595 -0.013359476 -0.13281631 -0.05170451 0.014403221
-0.0096499 -0.009273722 0.0672007 0.10986219 0.14330907 0.08463152 0.13725454 0.121490486
-0.05160518 -0.030493787 -0.06681235 0.1654999 -0.08072088 0.10750735 -0.18026897 -0.15092511
0.14350475 -0.17360185 0.002012172 0.14615129 0.114934474 -0.060051702 -0.085766144 -0.05454098
-0.1030832 0.13732524 -0.07050181 0.17030479 -0.034102116 0.1624824 0.06364412 0.08982635
0.15328027 -0.14681788 -0.052186176 -0.07301122 -0.058282394 0.16069569 -0.087752424 0.053133495
0.047940683 -0.006493555 -0.1078901 -0.11512232 0.016554138 -0.03571018 -0.022523947 -0.1348689
-0.18334071 0.065711096 -0.13144776 -0.034925498 0.044260498 -0.13931862 0.17424151 -0.0034748293
-0.023306249 0.09087705 0.16029121 -0.04938572 0.15006495 -0.052899368 -0.15280849 -0.16056563
0.0997263 -0.1438779 -0.062023345 0.13713585 0.15132278 0.01498238 0.012147407 -0.0023069582
0.03920746 0.14410049 -0.17671283 0.042652313 0.055815775 -0.0619813 -0.064264305 -0.15752208
-0.1630077 0.089406945 -0.13509282 -0.031870056 -0.12631609 -0.15297924 0.10734749 -0.13172989
-0.06958859 0.018497657 -0.07701674 0.068754524 -0.016338225 0.12765363 0.015665993 -0.07509337
-0.03648427 -0.14147665 -0.06500211 -0.007079954 0.035142947 0.05440888 -0.07637399 0.10566866
0.071355075 -0.09499288 0.106253535 0.009840994 -0.068340205 0.03741384 -0.08574245 0.14061707
-0.0005803621 -0.11244113 -0.17283292 -0.048774693 -0.12250929 -0.13406976 0.16328911 -0.115519725
-0.040589206 -0.00072009995 0.03327167 -0.016788607 -0.082482375 0.061428208 0.012642347 -0.020022323
0.15342182 -0.046247244 -0.003755438 0.040762477 0.03431951 -0.15447788 -0.07121579 0.07395261
-0.18069074 -0.12317547 -0.1523527 0.15187652 0.12639904 -0.013828835 0.1505711 0.008509899
0.03925303 -0.09803604 0.011767312 0.012114427 -0.07708436 -0.03250184 -0.14332205 0.057481647
-0.09882052 0.165977 -0.1173746 -0.082854025 0.09246583 -0.14282775 -0.17224433 -0.1305392

bias_ih_l0 f4 [32]
00000000: 3b94 ef3c 8a36 0bbe ce1f 053e 7dd8 21bd
00000010: 0f75 293e 0159 e83c 3d91 e0bc 3052 113e
00000020: 48fa 723d 1a26 abbc aaa1 93bc bc84 893d
00000030: 4d02 423e 48c8 16be 0d34 e8bd e362 8abd
00000040: c881 19be 2be7 bc3d d7c5 163d 8554 6c3d
00000050: b7f3 8a3a 589b d13d 5d38 40bb 2efe 273e
00000060: b9a9 e2bd 0c01 48bd 427a 31be 270b 053e
00000070: 922d 11be 51f5 37be 1d7f 8fbd 7e78 673c
0.029245486 -0.13595024 0.13000414 -0.0395131 0.1654856 0.028362753 -0.027413005 0.14191508
0.059320718 -0.020892192 -0.018021423 0.0671477 0.1894619 -0.14724839 -0.11338053 -0.067571424
-0.14990914 0.09223779 0.03680977 0.05769779 0.0010601197 0.102347076 -0.002933047 0.16405556
-0.11067528 -0.048829123 -0.17331794 0.12992536 -0.1417754 -0.17964675 -0.07006667 0.014127849

bias_hh_l0 f4 [32]
00000000: 52a9 f83d e67f 17bd 4120 01be e463 073e
00000010: 9ae0 873b c16a df3d 0c6b eabc 02d1 6d3c
00000020: 5ed1 e83c f523 c9bc 0870 91bd 113c d1bd
00000030: 48f0 193e 61cb a73d b0b7 b63c d4cd 513d
00000040: 0e4d f13d c9a1 78bd 358d f43d 0c3b 1e3e
00000050: 18a4 12be 5c41 15bd 934e efbd 76b5 9d3d
00000060: 358b 213d ed8b ea3c 6f8e f9bc f075 f3bd
00000070: 4feb 3bbe b37d 52bd 80a7 c7bd a064 d93d
0.1214167 -0.036987208 -0.1260996 0.13221699 0.0041466476 0.109090336 -0.028615497 0.014515163
0.028420147 -0.024553278 -0.071014464 -0.10216535 0.15033066 0.08193088 0.022304386 0.051221684
0.11782275 -0.060701165 0.119409956 0.15452212 -0.1432041 -0.036439285 -0.11684909 0.077006266
0.0394394 0.028631175 -0.030463425 -0.11887729 -0.18351482 -0.051389407 -0.09748745 0.10614896

weight_ih_l0 f4 [32, 2]
00000000: b44a 55be cbab 54be bf41 8a3e 9661 05bd
00000010: fb08 1abe 5192 0fbe 4eed 7c3e 6107 a33d
00000020: d9cc 7cbe 0b28 51bd e679 5abe 8df9 b1bd
00000030: 02f2 94bd ee32 593d e198 3ebe 7c28 0abe
00000040: f0c6 c73c c0dd 083d 8b1b 013e 110e 753c
00000050: 83fc 7fbe bd9b 24be 9ea3 b7bc a72b f0bd
00000060: 9b08 ab3c da85 02be 2420 1e3e 8643 2d3e
00000070: 56b5 f43c d5e0 e1bc 20ab ddbd b0b0 2bbe
00000080: 1d24 163e ad73 093e 1a17 4abe 1ab9 c8bd
00000090: ea3f 8a3e 2003 b23d cea2 8e3c 6b79 0dbe
000000a0: b9e3 0d3d 0ee9 823d 4276 093e 73f1 253e
000000b0: f3b9 033e d397 873d a6ac 833e 1825 feba
000000c0: 5bfe 8e3e 344e 453d ba02 9abd 0dc0 f13d
000000d0: f69a 0cbe 59b0 ee3d 2d68 83bc aef4 483d
000000e0: bb5e 983d 6e07 2abd 1cbe 6fbe cab7 28be
000000f0: 9446 623e cead 133e 7e81 18be dee2 d2bd
-0.20829278 -0.20768659 0.27003285 -0.03256377 -0.15042488 -0.14020659 0.246999 0.07960392
-0.24687518 -0.05106358 -0.21335563 -0.08690176 -0.07272722 0.053027086 -0.18613006 -0.13492006
0.024386853 0.033414602 0.12608163 0.014956967 -0.2499867 -0.16075034 -0.022416886 -0.11727076
0.020878127 -0.12746373 0.15441948 0.1692029 0.029871624 -0.027573029 -0.10823655 -0.1676662
0.14662214 0.13423033 -0.19735375 -0.0980093 0.27001888 0.08692002 0.017411616 -0.13815849
0.034641 0.06392108 0.13424018 0.16205387 0.12863903 0.06620755 0.25717658 -0.0019389717
0.27928433 0.048170283 -0.07520051 0.11804209 -0.13730988 0.116547294 -0.016040886 0.04906147
0.074399434 -0.04151099 -0.23412365 -0.1647636 0.22097236 0.1442177 -0.14893147 -0.10297178

weight_hh_l0 f4 [32, 32]
00000000: 1861 4c3d ea71 9ebd e35f ab3d ae33 d63c
00000010: a611 9b3d 1bd4 d43b 3662 7abe e1e5 b2bc
00000020: b40b ec3c a1fa f6bd c7b5 2cbb 8cd4 093e
00000030: 2d5f ba3d 5438 6b3c 6b10 c5be ff85 4e3e
00000040: 0556 03be 6d4d ff3d cd35 43be ecd0 363e
00000050: 7c16 e93d d048 f6bd 1366 00be 0115 b6bd
00000060: e780 86be 5cf0 58be 00eb 2d3e f350 80bd
00000070: f47e 6a3c b939 943e 2faa 96be 528f 3d3e
00000080: db77 bfbd a24d 9f3c e454 903c 603d 533d
00000090: 0d5b 26bb 907e 033d 1ecc 823e 8fd1 88bd
000000a0: e219 923c b2fe 3c3e 5ce2 bcba 4156 15bd
000000b0: 354f 9abd cc84 8e3e 1e62 a73e 2521 8bbe
000000c0: 3cee 373e 4b2e 4ebe 621b 633d 9412 75be
000000d0: fbd5 d6bd 5be7 643e 60b4 963e d29a 363e
000000e0: 4962 443e cf82 f23d 21c9 13be 63bb 1b3e
000000f0: 6101 8dbe 6989 5bbe 2bea 913e 5142 d23a
00000100: 41c0 003e 0d1b a7be 5d6a 503e 5d84 4bbe
00000110: 876d 3e3e 9d8d 513e b12b 00be 2bc4 c53c
00000120: bd20 233c ed72 8dbd 1729 653d b9d6 8b3e
00000130: d442 243e 1e3a 58bd e30d 27bd 07ee 4f3e
00000140: 7b91 a0be bb31 a53e c7e7 9abc 962c 713c
00000150: 67a7 963e 8f94 4ebe 5a0d 59be cafe 02be
00000160: 602e 17bd 35b9 69be 0020 523e 5278 a2bd
00000170: 47fc ce3d f084 953e 57f0 fe3b f9f8 383e
00000180: 210b 23be 05f5 793e b271 2abe f9ba a43e
00000190: 6fc3 95bd 95a8 3cbe 9d9a 443c 6be4 553c
000001a0: 0984 c43b dd23 cf3b db6e 8bbe 1345 2bbe
000001b0: 4cf2 30be e57b 713e 12e4 223e c38a 80be
000001c0: ffef 173d 5af7 da3c 9b73 723e 30f0 3fbe
000001d0: 1eb0 8dbd 7d2c b23c ce00 093e 3990 3a3e
000001e0: a15f 15bd 3c4a 013d ec1f 89be cd67 593e
000001f0: 1169 40be 9fe9 973c 1736 a33e 15db c3bd
00000200: d25d 813e 3abb 4abe b6de 4a3e 0533 89be
00000210: 80c9 823d 123e 643d 8958 98be ae52 e23d
00000220: 97ae 03be 098b 13be a0e9 db3d a5bc a23d
00000230: 734e f43b fc73 9bbe c93d 68be 1e1a ae3d
00000240: 1939 53be 8733 fb3c 713a cbbd 81c2 383c
00000250: 5629 0d3e 13a6 92be d268 6b3a 97d6 ebbd
00000260: c6ff 53be a1a7 65be a8d1 c63d 8eb7 00be
00000270: d40f f33d 549c ec3d c791 0bbd 9178 923e
00000280: 9fc7 1f3e ea68 7bbe e6a7 9b3e 2bd3 09be
00000290: 3ce2 8d3e 7845 163e 8008 5ebe 0b62 bd3d
000002a0: b872 96be b2d0 15be c1ff 063d d57b 7f3e
000002b0: 6c40 5c3d 7742 08be b62d c9be 3a08 483e
000002c0: 4847 e1bd 19dc da3d 3859 e8bd 0ad2 3b3e
000002d0: d770 843e 8a69 84be fb67 89bd 674d 50be
000002e0: 4319 0d3d 674f ccbb 1647 033e dd9b 79bc
000002f0: 21bc 8a3e 0a3e 9a3c 0078 63be b119 7a3e
00000300: 10bc c0be abeb 483e 8cb8 58be 8f72 293e
00000310: 857f 53be c929 e6bd 1123 16bd 0b6c 6fbd
00000320: 4987 6e3e dffb d33b 9e01 c0bd ef0e 62be
00000330: 8bb1 52be 7eb0 573e c19e 2e3e e09d 69be
00000340: e107 923e 8932 46bd 3e39 2c3e 3058 113d
00000350: d6c8 29be 8acf 0f3c a672 933e ae74 723e
00000360: bf63 1dbd e2c8 863e ec1b 5dbe b2e3 8d3e
00000370: 4380 8bbe 1259 2fbe 7855 833e 80ad ecbd
00000380: f324 383e 2f57 15bd 9613 903e 1bfc 36bc
00000390: 0ead 563e 4274 113e 9663 a6bd 8ffc 04bd
000003a0: c64d 8cbe 2ffb 8ebe ea3b a73d a099 0c3e
000003b0: 830c 473e 6fd2 d33c b180 10be 9822 223e
000003c0: 9cd4 8fbe ac7f 6c3e a6de 75be ca86 693e
000003d0: 1886 173e 968c 14be 8c9a 1fbe 0c00 91be
000003e0: b65e 35bd 2814 a43c d62b a03e 6b2f 8ebe
000003f0: 59b9 923c bf80 5b3e 0786 a5be 7809 b9bb
0.049897283 -0.07736571 0.08367898 0.02614769 0.075717255 0.0064950115 -0.24451527 -0.02183813
0.028814174 -0.120595224 -0.0026353465 0.13459986 0.091001846 0.014356691 -0.38489088 0.20168303
-0.12825783 0.1246594 -0.19063492 0.17853135 0.11381242 -0.12025607 -0.12538938 -0.08890725
-0.2627022 -0.2118544 0.16984177 -0.0626544 0.014312495 0.2895029 -0.29426715 0.18511704
-0.093490325 0.019446198 0.017618604 0.051572204 -0.002538386 0.03210312 0.25546354 -0.06680595
0.017834608 0.18456534 -0.0014410722 -0.03645921 -0.07534639 0.2783569 0.32692045 -0.27173725
0.17961973 -0.20134847 0.055446036 -0.23932868 -0.10490032 0.2235388 0.2943449 0.17832497
0.19178118 0.11841356 -0.14432193 0.15208201 -0.27540115 -0.21439137 0.28498968 0.0016041492
0.12573339 -0.32637826 0.20353074 -0.19874711 0.18596469 0.20464177 -0.12516667 0.024141392
0.009956536 -0.06906686 0.05594739 0.27312258 0.16041118 -0.0527898 -0.040784728 0.20305644
-0.31360993 0.32264504 -0.018909348 0.014720103 0.29424593 -0.20173858 -0.211965 -0.12792507
-0.03690946 -0.22824557 0.2052002 -0.079331055 0.10106712 0.29202986 0.0077801156 0.18063726
-0.15922214 0.24409874 -0.16644934 0.321739 -0.073126666 -0.18423684 0.011999753 0.013054947
0.005997185 0.006321414 -0.27233014 -0.16725568 -0.17279929 0.23582418 0.15907314 -0.25105867
0.037094112 0.026729275 0.23676912 -0.18743968 -0.06918357 0.02174973 0.13379213 0.18219079
-0.036468152 0.031564936 -0.26782167 0.21231003 -0.1879008 0.018544016 0.31877205 -0.09563271
0.25266892 -0.19797984 0.1981152 -0.26796737 0.06386089 0.055723257 -0.29755047 0.11050926
-0.1285957 -0.14408506 0.1073792 0.07946137 0.007455641 -0.30361927 -0.22679819 0.08501075
-0.2062725 0.030664219 -0.09923256 0.011276842 0.137853 -0.2864233 0.0008980158 -0.11515539
-0.20703039 -0.22427227 0.097079575 -0.1257002 0.11868253 0.11553255 -0.03407457 0.2860761
0.15603493 -0.2455174 0.30401534 -0.1345946 0.27711666 0.14674938 -0.2168293 0.09247216
-0.29384398 -0.14630392 0.03295875 0.24949582 0.053772375 -0.13306604 -0.39292687 0.19534388
-0.10999924 0.106865115 -0.11345142 0.18341842 0.2586734 -0.2586177 -0.06709286 -0.20342027
0.03444792 -0.0062350514 0.12820086 -0.015234915 0.27096656 0.01882841 -0.22213745 0.24423863
-0.3764348 0.1962115 -0.21164149 0.16547607 -0.20654114 -0.11238439 -0.036654536 -0.058452647
0.23293795 0.0064692344 -0.093753085 -0.22076009 -0.2057554 0.2106342 0.17052747 -0.22814131
0.28521636 -0.048388038 0.16818711 0.035484493 -0.16580519 0.0087775085 0.28798407 0.23677322
-0.038425203 0.26325136 -0.21592683 0.2771278 -0.27246293 -0.17123821 0.25651145 -0.1155653
0.17982845 -0.036460098 0.28139943 -0.011168505 0.20964453 0.14204505 -0.08124463 -0.03246742
-0.27403086 -0.27926013 0.081657246 0.13730478 0.19438367 0.025857178 -0.14111592 0.15833509
-0.28091896 0.23095578 -0.24010715 0.22805324 0.14797246 -0.14506754 -0.15586299 -0.28320348
-0.044279777 0.020029142 0.31283444 -0.27770552 0.017910646 0.21435831 -0.32328817 -0.0056468807

bias_ih_l0 f4 [32]
00000000: b4e5 4fbe 84a1 5e3d 3c14 383d 50de b33d
00000010: c1a8 50bd 3826 8dbd 7f2a 31bd 7804 2bbe
00000020: c5c1 633e 6a39 803e be94 c9bc b4e4 5cbe
00000030: 6be6 69bd af1f 0c3e 2c06 5f3d 38b7 1dbe
00000040: b072 c83d a985 8cbe e183 103c c5bd 8b3d
00000050: a21b 09be 3b2a 523e 92dd 693e 0cc1 543d
00000060: 0d88 353e 963f d33d 9905 41be d3c8 983d
00000070: 6237 49be cca1 03be 2e5c f03d 178b 81be
-0.20302469 0.054353252 0.044941172 0.08782637 -0.050942186 -0.06892055 -0.043253418 -0.16700923
0.22241886 0.25043803 -0.024607059 -0.21571618 -0.05710451 0.13683961 0.054449245 -0.15401924
0.097875 -0.27445725 0.008820505 0.06823305 -0.13389447 0.20523922 0.22838429 0.051941916
0.1772768 0.103148624 -0.18849792 0.07460179 -0.19650033 -0.1285469 0.11736332 -0.2530143

bias_hh_l0 f4 [32]
00000000: cf50 19be 4121 d53d 57a2 3fbe 078c 153e
00000010: 5a08 8c3c 7293 13be 68cb 813e 675f 73be
00000020: 2ba5 823c 7bfc 903e f7d2 2c3b c707 1cbe
00000030: 297d d3bd 4647 823e 3a3c ba3c a732 7ebe
00000040: 22ef 203e 1c1e 9e3c 8dd1 4b3e 97b6 1cbe
00000050: 528f fbbd 03d3 1d3e d65f 013e da49 223e
00000060: c288 b03c 3f82 733e a384 733c 4caf 8e3e
00000070: 2518 40be 4741 c93c d434 0d3e c95b 333c
-0.14972232 0.10406733 -0.18714271 0.14604197 0.017093826 -0.14411715 0.253505 -0.23766862
0.015947899 0.28317627 0.0026370862 -0.15237342 -0.10326607 0.25445002 0.022733796 -0.2482401
0.15716222 0.019301467 0.19904156 -0.15304027 -0.122831956 0.15412526 0.12634215 0.15848485
0.021549586 0.23780154 0.014863166 0.27868116 -0.1875921 0.02456726 0.13789684 0.010947176

weight f4 [64, 64]
00000000: 5841 51bf 70c0 26bf 9f64 363f 1a4e 2fbf
00000010: 024d 16bf d40a 47bf 0b7f 38bf c006 393f
00000020: 7997 2cbf b24f 323f c494 163f 98e4 13bf
00000030: 7983 1d3f 150d 523f 12e3 4f3f fa4b 243f
00000040: e665 1e3f dd6e 1b3f 9b8d 18bf 4379 23bf
00000050: bcc7 1a3f a79c 183f aa52 2cbf e81b 243f
00000060: e1cd 4cbf b96e 1c3f 6500 4fbf 117d 1abf
00000070: 3405 2fbf 81e3 25bf 9a40 4abf 4ea6 32bf
00000080: 742f 78bf c34c 2a3f 387a 37bf 346b 533f
00000090: 8c25 48bf 3eb4 27bf cf17 3e3f 499a 41bf
000000a0: a5cf 323f 8c55 383f 395c 32bf acf9 4fbf
000000b0: bfac 3dbf f37b 463f a1a4 3b3f 7a9a 55bf
000000c0: 9f2b 2b3f 357c 54bf 947a 4f3f d1e7 4fbf
000000d0: 3939 35bf c3f8 483f c6ee 233f 861e 3a3f
000000e0: 8735 293f af4d 2a3f bab1 42bf 3744 183f
000000f0: c43f 3abf 46fd 48bf cd4f 383f db53 4bbf
00000100: 2394 783e e1a6 6a3e 0e73 aabe 90af a93e
00000110: 2634 ac3e cbb3 783e 4ba1 933e 85ef 97be
00000120: 081c 9b3e 34f1 8abe 7870 afbe 606e 763e
00000130: 3dfe d9be 9b01 dabe 33ce 91be 5b49 43be
00000140: 1ee1 c4be ae61 95be 7000 b33e 2129 d53e
00000150: a299 68be e4ef 8cbe fc7d 963e 13dd aebe
00000160: 9984 713e f2b3 9dbe 836e a53e f411 d03e
00000170: c80a ab3e b7a1 ba3e 371e 4e3e cd37 6d3e
00000180: 4949 bd3e a2a4 b4be 08ac 683e 53fd c5be
00000190: 112d c23e 9a83 833e 802e 6cbe ca0c ac3e
000001a0: 0679 90be bee2 94be acf1 af3e 991e 9a3e
000001b0: 0041 633e a91e b7be 51ca f0be cf02 c53e
000001c0: 1a61 aabe ef8a 5d3e 5177 7ebe e8e4 ad3e
000001d0: edc5 c53e 21eb 62be 2997 c8be 03d9 b7be
000001e0: 0548 4cbe 522a e7be 6288 863e d835 dabe
000001f0: 4168 483e 2dae 6b3e ee08 a8be 0012 9b3e
00000200: 221d 73bf 8579 50bf 70e0 653f f65b 5ebf
00000210: 2ad7 54bf 3109 78bf 3e95 41bf d6c9 513f
00000220: 5caa 4ebf 117c 693f f8f0 423f 316b 6fbf
00000230: 693e 5b3f f2c4 423f 96cf 3f3f b607 753f
00000240: 62b8 653f 9dc2 643f 48a9 44bf 11c2 70bf
00000250: 8323 563f 60ea 5b3f e943 6dbf 6736 603f
00000260: c298 6ebf b210 7e3f f82a 5abf dd3c 59bf
00000270: 5d79 5fbf 295d 48bf 15af 69bf 075a 5bbf
00000280: c696 99bf ede7 753f 3278 7cbf 9594 853f
00000290: 7c2a 84bf 134a 54bf ca21 4d3f 756a 64bf
000002a0: 768e 463f a2e5 523f ddad 74bf 27f8 71bf
000002b0: 16d2 7ebf 79fb 6d3f 693c 8a3f 7983 67bf
000002c0: 59fd 673f d62b 72bf 83ec 733f 78bb 48bf
000002d0: 89aa 7fbf 71ab 523f c752 6d3f 9f2f 5f3f
000002e0: 2a13 593f e4e1 843f e1b2 5bbf 6939 823f
000002f0: af1c 80bf e531 56bf 2a05 863f 0a42 81bf
00000300: b175 01be f014 82be b713 633e 6fc4 9ebe
00000310: de1d 24be bbd5 1dbe d472 8fbe 0a49 a93e
00000320: cb59 35be 9e37 183e 1d89 a43e 2504 7fbe
00000330: f78b ff3d d868 cd3d 8411 703e 9807 a33e
00000340: 23b9 2c3e 2fdd 713e ee07 3ebe e669 36be
00000350: cb2f a23e e647 893e a9c6 61be 4099 af3e
00000360: 5805 9dbe 4725 183e 5b09 96be 9c09 adbe
00000370: bc14 3bbe ff60 f7bd fdfd 08be 60c2 82be
00000380: e751 82be 6588 773e ba20 0cbe 45ca 983e
00000390: 0874 54be 398f 90be 2cc9 9a3e af21 2cbe
000003a0: 183c ef3d a3b0 ad3e 9c34 8abe db88 30be
000003b0: ac03 9ebe b79b 4d3e 2765 eb3d 6dce 86be
000003c0: f908 ae3e eec1 14be 80d6 8e3e d312 5bbe
000003d0: b125 43be ce2b 8e3e 8fa8 a23e 15d4 333e
000003e0: e445 903e 8d17 5c3e 9b12 8fbe 52b5 f43d
000003f0: 371e 91be 1912 3cbe ad8e 363e afd3 46be
-0.8174033 -0.65137386 0.71247286 -0.6847855 -0.58711255 -0.777509 -0.7206885 0.72275925
-0.6741863 0.69652855 0.5882075 -0.5777068 0.61528736 0.8205121 0.81205857 0.6417843
0.61874235 0.6071604 -0.5959107 -0.63856906 0.6046102 0.5961403 -0.67313635 0.6410508
-0.80001646 0.6110645 -0.80859977 -0.60347086 -0.68367314 -0.6480027 -0.79004824 -0.6978501
-0.9694741 0.6652338 -0.71670866 0.82585454 -0.7818229 -0.655094 0.7425508 -0.75626045
0.6984809 0.72005534 -0.6967197 -0.81240344 -0.74091715 0.7753288 0.7329808 -0.8343884
0.66863436 -0.83002025 0.81046414 -0.812131 -0.7079044 0.7850458 0.64036214 0.72702825
0.660973 0.66524786 -0.7605244 0.5947909 -0.7275355 -0.78511465 0.71996766 -0.7942483
0.2427526 0.22915222 -0.33290905 0.33141756 0.33633536 0.24287336 0.28833994 -0.29674926
0.30294824 -0.27137148 -0.34265494 0.24065542 -0.4257678 -0.4257935 -0.2847763 -0.19070952
-0.38453 -0.29176086 0.3496127 0.4163294 -0.22714856 -0.27526772 0.29392993 -0.3415304
0.23585738 -0.3080135 0.32310876 0.40638697 0.33406663 0.36451504 0.20128714 0.23165818
0.36969975 -0.35281855 0.22721875 -0.38669834 0.37925008 0.25686342 -0.23064613 0.33603507
-0.28217334 -0.2907924 0.34364069 0.3010147 0.22192764 -0.3576558 -0.47029355 0.38478705
-0.33277208 0.2163503 -0.24850203 0.33963704 0.38627568 -0.22160007 -0.39177826 -0.35907754
-0.19949348 -0.45149475 0.26275927 -0.42619205 0.1957102 0.23015662 -0.32819313 0.3028717
-0.9496633 -0.81435424 0.8979559 -0.8685907 -0.83140814 -0.96889025 -0.7561835 0.819486
-0.807287 0.91204935 0.7614894 -0.93522936 0.85642105 0.76081765 0.74926126 0.9571489
0.8973447 0.89359456 -0.768208 -0.9404612 0.83647937 0.859045 -0.9268175 0.8758301
-0.9320184 0.99244225 -0.85221815 -0.84858495 -0.8729456 -0.7826715 -0.9128278 -0.85684246
-1.1999137 0.96057016 -0.98620903 1.0435969 -1.0325465 -0.8292553 0.80129683 -0.8922494
0.7756113 0.8238164 -0.95577794 -0.94519275 -0.99539316 0.9296184 1.0799686 -0.90434986
0.9062095 -0.9459814 0.95282763 -0.78411055 -0.9986959 0.8229285 0.92704433 0.8718204
0.8479487 1.0381436 -0.8581982 1.017377 -1.0008754 -0.83669883 1.0470326 -1.0098279
-0.12642552 -0.254066 0.2217549 -0.31009242 -0.16027018 -0.15413563 -0.28017294 0.33063537
-0.17710035 0.14864966 0.3213586 -0.24903925 0.12477868 0.10029763 0.23444182 0.3184173
0.16867499 0.23619531 -0.18557712 -0.17813835 0.31677088 0.26812667 -0.22048439 0.34296608
-0.3066814 0.1485797 -0.29304013 -0.33796394 -0.18269628 -0.120790474 -0.13378139 -0.2553892
-0.25453112 0.24173124 -0.13684359 0.2984182 -0.20747387 -0.2823427 0.30231607 -0.16809724
0.11681384 0.33923826 -0.26993263 -0.17239706 -0.30862176 0.20078932 0.11493903 -0.26329365
0.3399122 -0.14527103 0.27898026 -0.213939 -0.19057347 0.27767795 0.31769225 0.17561372
0.28178322 0.21493359 -0.27943882 0.119486466 -0.28343365 -0.18366279 0.17827864 -0.19416688

bias f4 [64]
00000000: 0c44 3b3f d83f 81be c911 593f 8fed 893e
00000010: 0386 473f 9ae5 c13e be8e 2dbe 9fed 833f
00000020: b22d 1dbf 2167 dc3d ef67 1f3f 0d1f 4abe
00000030: 532a 59be cebe 73be 94c7 01bf d279 81be
00000040: 5dd2 f03e e394 a0bf e61e b03e 6188 3e3f
00000050: 797e e53d 61a5 473f 7a53 90be 8d43 9a3f
00000060: e938 2a3f fefe 71be 867f 083f 53e2 a03e
00000070: a1fc 59bf 73ac fdbe 716e 0c3f 1384 e13e
00000080: b4cf 88be ee1f e7be 5f41 dabd 4f6a 98bf
00000090: d724 b23e fdc7 b73e bb36 3bbf 2270 283f
000000a0: 0e84 5dbf b89e 733e ea5e 4b3f 3dc8 933e
000000b0: 3a79 8a3f 7511 163e c04a c03e 35e9 843e
000000c0: 27ed 6d3e b8a4 723f cbb3 e03e 450a 123f
000000d0: 6380 8cbe a04d 373e 7981 193f 0779 a53e
000000e0: 6cba b93f 9b12 88be 82dd 663f 6679 e3be
000000f0: 1e24 12bf 9efd 2e3f de9c 753f 19dd e4bf
0.73150706 -0.2524402 0.84792763 0.26939055 0.7793886 0.37870485 -0.16948983 1.0306891
-0.6139785 0.10761858 0.62267965 -0.19738407 -0.21207552 -0.23803255 -0.5069516 -0.25288254
0.47035494 -1.2545437 0.34398574 0.7442685 0.11205763 0.77986723 -0.28188688 1.2051865
0.6649309 -0.23632428 0.53319585 0.31422672 -0.85151106 -0.4954563 0.5485602 0.44046077
-0.26720965 -0.45141548 -0.10657 -1.1907443 0.34793732 0.35894766 -0.7313039 0.657961
-0.86529624 0.23791015 0.794417 0.28863707 1.0818245 0.14655097 0.3755703 0.25959173
0.23234998 0.9478259 0.4388717 0.5704692 -0.274417 0.17900705 0.59963185 0.323189
1.4510016 -0.26576695 0.90181744 -0.44428557 -0.5708636 0.6835574 0.95942485 -1.7879974

weight f4 [1, 64]
00000000: 64a3 debb 8852 ae3d db9c 5dbd 28c8 643c
00000010: c06d 6fbd 7b20 243d e8a7 a93d c496 c53c
00000020: be2c 0a3d 4d9a 2ebd accc f1bd bf65 933c
00000030: e7e2 1fbd 3943 813d cc77 e23d a93f d7bd
00000040: 3b36 123d e217 833d 7c2f 463d aba9 0bbc
00000050: d632 b33c e6a5 5ebd 0bd2 4abc 0f26 b2bd
00000060: 52b0 d0bd cd7b e93d e5aa a3bc 2fea ec3c
00000070: c0ec 323d 3032 a53d 6088 e33c a6be 9b3d
00000080: ea34 94bd dc5e 8fbd 54fb a9bd db61 8dbd
00000090: 6992 4abd 1a3b 00be b2e5 b93c fb4f 85ba
000000a0: 262d d0bc 4c8a 783d 512a 01bd 0695 e8bd
000000b0: c6d2 96bd 5fe0 b6bd f137 af3d 5d79 4e3d
000000c0: cb19 c4bd 993d 1f3d 71d1 97bd 7c08 783d
000000d0: 58b5 0a3d f7c2 73bd 4b42 01be d9f1 06bd
000000e0: 319e 20bd c157 cc3d c431 82bd 4790 cbbc
000000f0: b260 2c3d b716 68bc 0838 7abd 1014 743d
-0.00679438 0.08511835 -0.054104667 0.013963737 -0.058454275 0.04007004 0.08283979 0.024119742
0.033734076 -0.04262762 -0.11806616 0.017992852 -0.03903475 0.0631165 0.11058006 -0.10510189
0.03569625 0.0640104 0.04838513 -0.008524339 0.021874826 -0.05435743 -0.01237918 -0.08698665
-0.101898804 0.11400566 -0.01997895 0.028920261 0.043682814 0.08066213 0.02777499 0.07604723
-0.07236655 -0.07000515 -0.0829989 -0.0690343 -0.049456034 -0.12522545 0.022692535 -0.0010170931
-0.025412153 0.060678765 -0.031534497 -0.11356549 -0.073644206 -0.08929514 0.08555592 0.05040871
-0.09575232 0.038877103 -0.07412995 0.060554966 0.03386435 -0.059512105 -0.12622945 -0.032945488
-0.039213363 0.09977675 -0.06357148 -0.02484907 0.042084403 -0.014165572 -0.06108859 0.059589446

weight f4 [1, 64]
00000000: 2cde 8c3b 858c 0abd 736a 07bb c78a 833d
00000010: 3e54 bcbb ad2e d5bd 3426 bebd 1f5b 1fbd
00000020: 983f adbb fa37 9d3d 43e6 55bd 344a bf3d
00000030: 6157 9abd dddd a8bd fe4e 893d 656b ca3d
00000040: 380e 88bd a4a1 083d dd19 313d 936c 62bd
00000050: d93c 893d b325 35bd 5ef8 96bd 86a0 50bc
00000060: 1d58 7abd d60d 93bd 9678 61bd d868 c2bd
00000070: 8f5a 22bb a6f8 b03d 5199 91bd d25d 97bd
00000080: 5a18 07bd 9185 03bd dd5b 7ebd bf4c 053d
00000090: eed9 b1bd 1900 e1bd af68 663d c346 92bd
000000a0: fc63 6f3b 1005 233d a580 c23b f79b b53d
000000b0: b4e8 17bd 2b66 4b3d 24bf f13c d8bb c63d
000000c0: 56bc 5e3d 4040 43bd b28f d63c b993 643c
000000d0: 19a9 89bd 6eba cd3d 0d9a 8cbd 8c10 ec3c
000000e0: 331e e1bc 8402 47bd 2c17 44bd 28b7 7c3d
000000f0: 5f2d 8b3d 9cc9 49bd 3eca 91bb 8777 0d3d
0.004298946 -0.033825416 -0.0020662814 0.06422954 -0.005747347 -0.10409293 -0.092846304 -0.03890526
-0.005287122 0.07676692 -0.052221548 0.09340325 -0.075361975 -0.08245442 0.0670452 0.09883765
-0.06643337 0.033357278 0.043237556 -0.055279326 0.06701059 -0.044225406 -0.07371591 -0.012733584
-0.061119188 -0.07180373 -0.05504664 -0.094926536 -0.0024773215 0.08641176 -0.07109321 -0.07390942
-0.032982208 -0.0321098 -0.062099326 0.032543894 -0.08684145 -0.10986347 0.056252178 -0.07142403
0.0036528101 0.03979975 0.005935746 0.088676386 -0.037087157 0.04965798 0.029510088 0.09703797
0.05437883 -0.047668695 0.026191566 0.013951235 -0.06721706 0.10045324 -0.0686532 0.028816484
-0.02748022 -0.048586383 -0.04787366 0.06169811 0.06795763 -0.049264535 -0.004449158 0.03453782

weight f4 [1, 64]
00000000: 235e e7bf d829 1b40 2dc4 debf be6d 91bf
00000010: f718 2ec0 3677 eabf 3510 973f 8122 0ac0
00000020: cd5e ce3f 2a81 93bf 1e4b d7bf dffc 0140
00000030: 9323 9a3f e97d a03f 23f6 d33f 5c93 1a40
00000040: b99a e3bf 99eb ef3f 9722 cbbf c608 28c0
00000050: 4926 93bf 21c3 e9bf 65cb 9e3f 7983 18c0
00000060: 8142 15c0 5340 a13f 31f8 e3bf 01d6 2dc0
00000070: 4a3c d73f d568 3b40 1650 10c0 42a4 12c0
00000080: c1ac b63f 6dfb b63f a223 ab3f a7e7 0240
00000090: 354a dcbf 2d2c 03c0 1e2f de3f b40f 1dc0
000000a0: 22e6 1b40 308c aabf 96ef e5bf 90b0 8bbf
000000b0: 11bc e9bf ea43 a4bf b674 b9bf c5ce 84bf
000000c0: 2ce2 00c0 6589 1fc0 e5b3 acbf 898c bebf
000000d0: fe8d 9f3f 5b53 87bf 46e3 f6bf d97c 1ec0
000000e0: afe3 f5bf d5f6 af3f ac3c 16c0 7d46 0240
000000f0: 1094 df3f d3f9 ddbf e040 f3bf cb0f 3f40
-1.8075603 2.424429 -1.7403618 -1.1361616 -2.7202737 -1.831763 1.1801821 -2.158356
1.6122681 -1.1523793 -1.6819799 2.031059 1.2042106 1.2538425 1.655949 2.415244
-1.7781593 1.8743774 -1.5869931 -2.6255355 -1.1496059 -1.8262674 1.2405821 -2.3830245
-2.332184 1.2597755 -1.7810117 -2.7161868 1.6815274 2.9282734 -2.254888 -2.2912755
1.427147 1.4295479 1.3370249 2.045389 -1.7210146 -2.0495713 1.7358129 -2.4540834
2.4359212 -1.3324032 -1.7963741 -1.0913258 -1.8260518 -1.2833226 -1.4488742 -1.0375601
-2.0138044 -2.492761 -1.34924 -1.4886638 1.2465208 -1.0572313 -1.9288108 -2.47637
-1.9210109 1.3747202 -2.347453 2.0355523 1.746706 -1.7341865 -1.9004173 2.985339
