trademaster/pretrained/logic_discriptor/ER/best_model/discroptor_parameter.pth (torch, 283543 bytes, 5 tensors)

linear1.weight f4 [256, 16]
00000000: 113d 783e 1283 44bc 1cab e8bd 90ce 51be
00000010: 8356 6c3e 7773 7e3e 6a12 39be 3cb2 aebc
00000020: 828f 793e 6e93 05be c907 6bbe 40f6 913d
00000030: 4adc 76bd 9f58 9939 4c50 0bbd ad8f df3d
00000040: 594f 7c3e 6231 5f3e 718a 05be 1228 3cbe
00000050: d4bc fd3d d63c 543e b354 ec3d b856 d53c
00000060: 8593 f93c 25b2 3dbe 0ba4 5e3e e3f4 64bd
00000070: 3b19 79bc 8df6 f03b 0ba2 77be 6855 dabd
00000080: 7011 13bd af27 aa3d 9def 123e 191d 70be
00000090: 9592 793e 1ee7 44bd 88aa 18bd c948 70be
000000a0: 38e2 133e 284f b03d 4261 f2bd 068a 533e
000000b0: 0117 38bb 1fac 093e b9af 58be 8113 77be
000000c0: 8483 edbd 29a0 a2bd 08f4 89bd 84cc 00be
000000d0: e692 013e 9ccb 293e 3e3d fa3d 53ea 2e3e
000000e0: a72d 54be ea16 4fbd 0ba8 123e 08c7 f9bd
000000f0: 4da1 9a3d 2d24 60be 2962 5e3e 10ca 33be
00000100: 67b2 2abe 682c 39bd b399 e0bd 081b 4739
00000110: 7d12 56be 9678 2bbd 6457 4ebd cda9 03be
00000120: e915 e8bd d1c0 353d 25d6 b7bd 11ee 653e
00000130: 2ea5 c4bd 2c5e 48be d165 6a3e 070a 973d
00000140: 4e68 123e 4661 373e d92d 2abe 23e0 3bbe
00000150: 477f 90bc 080a 4ebd bb63 6c3d ed44 c03d
00000160: cd62 013e 0339 d3bd 8a1d 803e 1974 3c3e
00000170: 5063 af3d dfbd f3bc d832 c0bc c058 e6bd
00000180: 97a1 92bd 4b55 14bd 3d8e 40be ed0e 743e
00000190: 5339 0ebe e084 103e 5e0a d5bd 1bde 3c3e
000001a0: 8933 e03d 622f f83d 31b5 673e 8788 61bd
000001b0: 313e 0f3e 8f90 a73d 1adb 39be 32f2 653e
000001c0: f728 dc3d d37b bf3d 0a2a b63d 6e5d 79bd
000001d0: 594c 33be 3144 193e 4fe9 56be 0e7a f23d
000001e0: 49bc 93bd 5047 b9bd eb71 4f3e 2bcb 273e
000001f0: a2b8 173d 4840 f1bd 92f0 c23d 59a5 f73d
00000200: 3839 063e da1a 443e 5aa0 f7bc 5029 e43c
00000210: 9983 40be 9ec5 91bd 2698 453e 7245 4a3d
00000220: 6dab f23d e806 273e 519b 3d3e a6c8 113c
00000230: 9d6a ec3d 07e1 2abe 9eca 20be b975 09be
00000240: 9eca edbd 4b9f 54be 7170 3dbe 57c8 f8bd
00000250: d205 f9bd 2c18 483e a3bc 943c 6972 65be
00000260: 557c 1abc a8a0 15be 28c1 45be dfcd a0bd
00000270: 3822 0b3e 4ffc dbbd cdb5 ebbd 29ad febd
00000280: c6c4 413d b070 103d 3767 a2bd 4d14 3ebc
00000290: 6308 93bd 7585 a6bd 8876 703e e2ad 443e
000002a0: 2441 523e 8280 dfbd bd40 183e c83c 033e
000002b0: e08c 173e da7c 533e aa11 37be 8e5b aa3d
000002c0: a467 35bd 62fc 2ebe 5e20 7abd 46d5 583e
000002d0: 406c a9bc 1ccf 09be 9ced 6b3e 5cec 0d3e
000002e0: 46bb b83d bb29 41be e0ef 02be f5b8 5bbe
000002f0: 714a b1bb 1333 fcbc 8291 a9bd 5ab0 483e
00000300: 16ae 38be d528 1f3e 86a5 63be 92b5 42bd
00000310: 3b0f 2b3e 59da 3e3e b17e 11bd a246 38be
00000320: 6aba 54be d7d8 d63d 98fb 753e da43 f7bc
00000330: 9225 333e caaf 29bd 9912 153e 3800 613e
00000340: b10b 29be c91e c63c 1f7b 6dbe fd2b 70be
00000350: 6f99 f6bc 7664 26be 2433 92bd 32c7 54be
00000360: d218 cc3d b89d f93d a6df e6bd 36b1 0e3e
00000370: 647f 29be 5da1 0c3e 9cc4 0b3e c989 56be
00000380: 1aca 5d3e bdc3 663e 9668 9a3d 3df8 063d
00000390: f64e 443e 01cb 42be d9ab 033e fd34 5f3c
000003a0: 6c78 be3d ba50 4e3d f799 e7bd 6cd4 523e
000003b0: 3a26 4cbe 1810 413e c2b9 08be 9425 e0bd
000003c0: 5d04 63bd 4d71 5d3e b9f6 403d c31b b1bd
000003d0: 1f3f 96bc 2d9e b9bd 3ad1 16be 5dea dfbd
000003e0: c47d 07be 533d 013d 0db0 47be 29d9 583e
000003f0: 4bd8 d13d 8bb0 83bd b765 0f3e 5a04 b73c
0.24242045 -0.01199414 -0.113607615 -0.20488954 0.23079877 0.24848734 -0.1807343 -0.021325223
0.2437115 -0.13044521 -0.22952189 0.071270466 -0.060268678 0.00029248462 -0.034012124 0.10916076
0.24639644 0.21796182 -0.13041092 -0.1837466 0.12389532 0.20726332 0.115395926 0.026042327
0.03046585 -0.18524988 0.21742265 -0.055897605 -0.015203769 0.00735361 -0.24182908 -0.10660821
-0.0359053 0.0830835 0.14349218 -0.234486 0.24372323 -0.048071973 -0.037272006 -0.23465265
0.14441764 0.08608848 -0.11834957 0.2065812 -0.0028089883 0.13444565 -0.21160783 -0.24128534
-0.1159735 -0.079407044 -0.067359984 -0.12578017 0.12653694 0.16581577 0.12218712 0.17081575
-0.2072054 -0.050558962 0.14321916 -0.12196165 0.07550297 -0.218888 0.21717133 -0.1755755
-0.16669618 -0.045208365 -0.10966816 0.00018988189 -0.2090549 -0.041863047 -0.05037631 -0.12857743
-0.11332304 0.044373337 -0.08976392 0.22454096 -0.09601818 -0.19567174 0.22890402 0.073749594
0.14297602 0.179082 -0.16619052 -0.1834722 -0.017638816 -0.050302535 0.057712298 0.093881465
0.12635346 -0.103136085 0.25022537 0.18403663 0.08563864 -0.029753624 -0.023461744 -0.112473965
-0.07159727 -0.036214154 -0.1880426 0.23833819 -0.13889055 0.14113188 -0.10402368 0.18444102
0.109473296 0.121184126 0.22627713 -0.055061843 0.13988568 0.08181869 -0.18149987 0.22455671
0.10750001 0.093497895 0.08894737 -0.060880117 -0.17509593 0.14967419 -0.20987438 0.11839686
-0.07213647 -0.09046805 0.202583 0.16386096 0.037041314 -0.11779839 0.095185414 0.120920844
0.13107765 0.19150868 -0.030227829 0.02785173 -0.188002 -0.071177706 0.19296321 0.049382634
0.11849103 0.16311228 0.1851628 0.008897936 0.11543772 -0.16687404 -0.15702292 -0.13423814
-0.11610912 -0.2076389 -0.18499924 -0.12147587 -0.12159313 0.19540471 0.018156355 -0.22406925
-0.009429057 -0.14612067 -0.19311965 -0.07851767 0.13587272 -0.107414834 -0.11509285 -0.124353714
0.0473068 0.035263717 -0.07929843 -0.01160152 -0.07179334 -0.08130924 0.23482716 0.19206956
0.20532662 -0.10913183 0.14868446 0.12816155 0.14799833 0.20653096 -0.17877832 0.08318244
-0.044288293 -0.17088464 -0.061066024 0.21175107 -0.0206815 -0.13457912 0.2303986 0.13859695
0.090200946 -0.18863575 -0.12786818 -0.21457274 -0.0054104854 -0.030786073 -0.082797065 0.19598523
-0.18035159 0.1554292 -0.22231111 -0.04753644 0.16705029 0.1863798 -0.035521213 -0.17995694
-0.20774236 0.10490578 0.24021757 -0.030183721 0.174948 -0.04142741 0.14557876 0.2197274
-0.16508366 0.024184601 -0.23191498 -0.2345428 -0.03010246 -0.1624926 -0.071386606 -0.20779112
0.099656716 0.121882856 -0.11273126 0.13934788 -0.16552502 0.1373343 0.1364922 -0.20950998
0.21659127 0.22535606 0.075394794 0.032951582 0.19170746 -0.19022752 0.12858523 0.013623473
0.093003124 0.050369956 -0.11308663 0.20588845 -0.19936457 0.18853796 -0.13352111 -0.109446675
-0.055424083 0.21625252 0.047110293 -0.08647873 -0.018340645 -0.09063373 -0.14728251 -0.10933373
-0.1323157 0.031552624 -0.19500752 0.2117659 0.10246333 -0.06430157 0.14003645 0.022340942

linear1.bias f4 [256]
00000000: 6ea5 dfbc e396 2e3c 0072 36be d6a5 453d
00000010: dc82 72be 4a03 11be b099 823e d542 5ebe
00000020: 0e59 5dbd 01a5 2bbe c793 0abc 9acc 783e
00000030: 9541 9b3c ddcd b93d f65f ff3d 615e 7d3e
00000040: e0a7 03bc 765e fb3d b9c5 aebd 0fad f93d
00000050: 03d0 603e 4288 5abc 1e39 553d 3d22 593e
00000060: ab69 6c3e 6b82 193e 787f 093e 893e 363e
00000070: 9f18 503e ba98 19be d0b2 83bd 7dca 47bd
00000080: 23c4 123e 21fe 5d3e a9f2 923d 24e0 233e
00000090: b337 a2bd a480 39be aadf 3cbe f458 653e
000000a0: ac40 dcbd 1979 313e 121c 5d3e 996f 09be
000000b0: 313e 733e f82a 493e c57f 81be de8d a73d
000000c0: 2641 c43d 4b6b d1bd d324 73bd 0ad4 7abd
000000d0: d3a6 61be 1b49 05be 9b84 67be 00d2 33be
000000e0: 35e6 6ebe db39 3fbe 1857 c4bd 46a6 253e
000000f0: aa69 213e d2d8 c7bd 5382 26bd 9242 84be
00000100: e146 123e 0641 453e 73ee 153e e4f4 553d
00000110: 448a f63d 3131 743e adce 42be 3466 77bd
00000120: 1214 17be a3ab cf3d 047f be3d 2be6 2fbe
00000130: 7cb0 a7bb 7444 90bd 7a21 0f3e c5dc 52be
00000140: d7ea 553e c70b b3bc f88d 7b3e bbf0 1abe
00000150: d881 8c3e 4c01 9e3c 2b2f 6fbe ab09 02be
00000160: 9779 58be 6965 f6bb 985d 7c3e 8a91 203d
00000170: 6e9f 403d 3310 dd3d 3e15 473e aebc 0fbe
00000180: 1ce2 933e 9076 b3bd 8ae7 9cbd 7e75 55bd
00000190: 6ec1 ecbd 2916 f1bd 9877 dd3d 8924 50be
000001a0: 99cb 773e ee6a 4a3d 852a 3a3e c0ca 953d
000001b0: cf31 89bd 1662 21be 99f8 bebc 94fe c23d
000001c0: 4e4c f63d b222 1d3e b140 0abd b2c8 893e
000001d0: 6333 7b3e 5015 eabd 234c 773e 5e70 873e
000001e0: 8b93 67be b939 34be b785 773e 2649 fabd
000001f0: 0745 5ebe 1287 f1bd a058 52bc a171 863e
00000200: 5186 a8bd 66cf 583e b5f6 753d e68b 753e
00000210: 0db7 183e 0171 403d 84f7 e4bd 0124 e23d
00000220: a501 673e 1cf3 54be cfe9 2f3d 28e6 bf3d
00000230: 8d30 653e e5f8 313b 67bd 593d fbe3 a1bd
00000240: 899a 40be a9fc 4e3d 727c 0ebe 4259 273e
00000250: f900 3fbe 8665 8e3c 1c19 f0bd 5bbd 923c
00000260: d78f 4dbd 814d 85be 7b30 63bd c9fa 033e
00000270: 0ec5 2a3e 7d91 fd3d db88 efbd 4581 1cbe
00000280: e106 c03a fe40 283d bc5a efbd 18bc d8bb
00000290: 9a85 0dbe ac37 f7bd 2aab 543e fb8f 0d3e
000002a0: 55ab 183e 010e 28be c938 63be 8cfa 9cbd
000002b0: 9a93 7dbe e681 b9bd 1d86 143c 121b a03d
000002c0: 3cdd ef3d 2864 f53c b39a 8f3d 979a 44bd
000002d0: 1758 66be 8678 463e 33a1 92bd 7e90 50be
000002e0: 8dc8 6b3c 3053 033e 7833 59bd 69fb ec3d
000002f0: 575a f5bd fbc4 ebbd 5e00 a53d 8798 0dbe
00000300: 64ec 4b3d dcc4 a23d e301 7e3d cb17 053e
00000310: 8380 6d3d 159f 3abe 20c0 5d3d f837 0cbe
00000320: 4a1f d13a ba6e 8c3d 370c e9bd e7d8 cf3d
00000330: d4d3 0c3e 0154 af3d fcbe 2a3e c68d 26bc
00000340: d23b 8a3c 988a 92bd be87 efbd 1021 023d
00000350: d59c 3abd 2c19 23be 2a0d 093e ecaf 2e3e
00000360: 4508 87bd c81e f3bd c135 07be 4c77 723e
00000370: acc0 fbbb 9501 30be 8eee 633d f799 a3bd
00000380: b048 e8bd 9dab 433d 12bf 1c3e 3b09 17be
00000390: bd80 26bd dc71 c3bd df55 80bb ed74 073e
000003a0: 7eb8 b1bd 11df bc3d 12fc fb3d ade3 263e
000003b0: dcdb 03bd b6b8 f0bd fa1c 36bd 66f5 253e
000003c0: 5ecf 663d f7b5 723e e841 9ebd 1146 28bc
000003d0: 6528 16be 5ff4 f3bd cc0c 34bc d83b 2cbe
000003e0: 2f69 013c 3043 463d 4972 f1bb 9c7d 843d
000003f0: 7f55 143d d4cf f9bd c877 80bd 9df1 2f3e
-0.027300563 0.010656091 -0.17816925 0.048253857 -0.23682731 -0.14161411 0.2550788 -0.21705182
-0.054040007 -0.16762163 -0.008458084 0.242968 0.01895217 0.090724684 0.12469475 0.24743034
-0.00803563 0.12273876 -0.08533806 0.121912114 0.2195435 -0.01333815 0.052056424 0.21204467
0.23087184 0.14991157 0.13427532 0.17797293 0.20321892 -0.14999667 -0.0643059 -0.048777092
0.14332633 0.21678974 0.0717519 0.16003472 -0.0792078 -0.18115479 -0.18444696 0.22397214
-0.10754523 0.17331351 0.21592739 -0.13421477 0.23754193 0.19645298 -0.25292793 0.08181356
0.095827386 -0.10225543 -0.05936129 -0.061237372 -0.22036295 -0.13016169 -0.22609179 -0.17560577
-0.23330005 -0.18674414 -0.09586924 0.1617671 0.15762964 -0.09758152 -0.04065163 -0.2583204
0.1428485 0.19263086 0.14641742 0.0522355 0.12038091 0.2384689 -0.19024153 -0.060400203
-0.1475375 0.10140159 0.0930157 -0.17177646 -0.005117474 -0.070443064 0.13977614 -0.2059203
0.20890366 -0.021856202 0.24565876 -0.15130894 0.27442813 0.019287728 -0.23357837 -0.12699
-0.21140133 -0.0075194133 0.24645078 0.039201297 0.047027044 0.107941054 0.19441697 -0.1403682
0.28883445 -0.087628484 -0.0766135 -0.052114002 -0.11560331 -0.11771805 0.10813826 -0.20326437
0.2419876 0.049418382 0.18180282 0.07314062 -0.06698953 -0.15760073 -0.0233119 0.09521213
0.12026273 0.15345266 -0.0337531 0.2691093 0.24531321 -0.11429846 0.24150138 0.26452917
-0.22614877 -0.17600144 0.24172102 -0.12220983 -0.2170602 -0.11793341 -0.012838513 0.26258567
-0.08228744 0.21172866 0.06004973 0.23979148 0.14913578 0.04698277 -0.11180022 0.110420235
0.22559221 -0.20795864 0.042947587 0.09370071 0.22381802 0.002715641 0.053159144 -0.07904812
-0.1880895 0.050533924 -0.1391466 0.16342643 -0.18652715 0.017382395 -0.11723539 0.017912557
-0.050186004 -0.26035693 -0.055466156 0.12888636 0.16676733 0.12381265 -0.11696025 -0.15283687
0.0014650488 0.041077606 -0.11687228 -0.0066142194 -0.13820496 -0.120711654 0.20768419 0.13824455
0.14909108 -0.16411592 -0.2218963 -0.076649755 -0.24763337 -0.09057979 0.009065178 0.07817663
0.11712119 0.029954985 0.070119284 -0.04799899 -0.22494541 0.19381914 -0.071596526 -0.2036762
0.014391077 0.12824702 -0.0530276 0.1157139 -0.119801216 -0.115121804 0.08056711 -0.13827716
0.049785987 0.07947704 0.062013518 0.12997358 0.057983886 -0.18224747 0.054138303 -0.13693225
0.001595476 0.06857057 -0.11379283 0.10148793 0.13752681 0.08560944 0.16674417 -0.010165637
0.016874228 -0.07155341 -0.11695813 0.031769812 -0.045559723 -0.15927571 0.13383928 0.17059296
-0.06593374 -0.118711054 -0.13204099 0.2367832 -0.0076828804 -0.17188103 0.055647425 -0.07988351
-0.11341989 0.047771085 0.15307263 -0.14749615 -0.04065012 -0.09543201 -0.0039164866 0.13228197
-0.08677767 0.09222234 0.12303938 0.16297789 -0.032192096 -0.11753981 -0.044461228 0.16206893
0.056350105 0.23702227 -0.07727414 -0.010270611 -0.14663847 -0.119118445 -0.010989379 -0.16819704
0.007898613 0.04840392 -0.00736836 0.064692706 0.036214348 -0.12197843 -0.062728465 0.17182012

linear2.weight f4 [256, 256]
00000000: f793 823b 326a 493d d6ae 47bd 1b4a 323d
00000010: c5b8 d53b bf28 ba3c 6d7c fe3c ba73 c7bc
00000020: fb70 693d 4f3a 563c ec29 1cbd a48b 04bd
00000030: 3862 3a3d 1221 06bc 3545 e23b ec50 80ba
00000040: 964d 153b 1932 c6bc 0d4d 003d 1231 e53c
00000050: 2996 56bd bcbe 89bd cc14 cabd 4009 81bd
00000060: 7f3c 1b3d 6e2f 7bbd 2949 793d 724f e93b
00000070: 0300 bbbc 8a53 fb3c e6cc 16bd 297b 4e3c
00000080: f1c4 9a3c d665 babc 1e06 fb3c cc24 223d
00000090: 41aa 403d d3a4 39bd 4ce3 81bd f889 24bd
000000a0: 83d4 173d 28a4 3dbd 298b 123d 691a 4bbd
000000b0: 73b3 313d b64c 873d 3e27 703d 827c 233d
000000c0: 48b8 b93c 3845 01bc 3885 443d a261 a1bc
000000d0: 43af 55bd 1fed 5b3d be38 a8bc 391c c2bc
000000e0: 949e 3c3c 38d8 0cbc 2773 01bb 801d d4b9
000000f0: 8411 e5bc 672d 2cbd 3854 093d fc2c 273c
00000100: 6cc3 673d b83a d2bd 504f 6ebd 3d61 ea3c
00000110: c6dd de3c ef77 3cbd c971 5ebd be64 803d
00000120: 4adc 11bc 756a 0c3d 39f1 80bd f618 22bd
00000130: ec73 403d 772a c3bc c12d 94bc 594b 3a3d
00000140: cc53 293d 26dd 9339 d540 0d3d 70af 12bd
00000150: 8789 a13c 558d 743d a117 2a3d 310f 983c
00000160: ad9b 6abc 8557 7fbc 24c1 353d 4f7d 6e3d
00000170: 52a3 0b3d d2f9 7a3c 56de 96bc e5bc d23b
00000180: aec1 1b3d b843 f23c 1bf1 2a3d 46a6 1b3d
00000190: 63ab 32bd 1471 16bc bbf1 6abd ff9a 6ebd
000001a0: 8c37 cd3c 24b2 133d 214e 0c3d 0ae8 0dbd
000001b0: cce5 833d e06a 90ba 0c75 553d fb7c 103d
000001c0: c0b9 25bd 3e87 34bd 0879 b33c ccc0 6bbc
000001d0: 5c52 343d ebae 093d d898 e1bc cc08 e13c
000001e0: 139d babb 029c 80bd 9af4 b1ba 846c 8a3d
000001f0: 5143 a13c 04f9 613d 06b9 14bd 4083 70bd
00000200: e899 edbc 4925 f2bc 17c6 393d a719 fc3c
00000210: 976c 2bbd 5533 ac3c cdea d83b 8df7 293d
00000220: eb3a 4c3c a4d5 f5bc 431e 27bd bccd 873d
00000230: 0783 143d ccaf 2abd 3fa3 e53c 045a 22bc
00000240: a05d b6bb fd49 543d 2e7e b93c 5806 0f3d
00000250: 72b9 66bc 21f7 35bd a387 aabd 3ae4 11bd
00000260: cf89 eebb c6b8 6b3d 22ac d73c 4e7b 803c
00000270: f92d 603d 82e1 4bbd 745e 9c3c 308e 2dbd
00000280: 8df3 d83b 6ef1 88bd 1c0f 88bd 31d7 04bd
00000290: c7d4 12bd 0cb7 453d 89a9 543d 9602 dcbc
000002a0: 809d 2d3c 3dfb 11bd d2d0 e33c 9d8c ce3b
000002b0: 5e89 81bd 4d63 023d c9a6 c83c bbdc 093d
000002c0: f259 64bd 5cc5 66bd 2c3e 693d a25c f8bc
000002d0: 263d c3bc caca 39bd 7e42 1abd a44b f33c
000002e0: 574a 513d 7a4d 7bbc 80e4 bf3c 3c28 db3c
000002f0: 65bf 573c 715c 71bd c329 9fbc e871 50bd
00000300: cafe 8a3c bc36 e2bb 9ca5 ee3b 572a 8c3b
00000310: 3f7c 1ebd 0528 ea3c 3a63 ecbc 789d 183d
00000320: 14b5 86bd 8fab 91bc 6afc d9bc 43b4 40bd
00000330: 51ea a23b dba6 81bd 60bf 0abd 0ae9 44bd
00000340: faa7 59bd 6e56 423d 305b d9bc ed66 aebc
00000350: 6e97 55bc 2c3b 533d a7e3 2abd 9e41 573d
00000360: f869 a53c 7426 093c 09a0 74bc a6ec df3c
00000370: f3be 823c 4525 ab3b 481e 513d a0e1 4cbd
00000380: b441 d2bc ab4a 67bd a5e0 01bc bfde dfbc
00000390: 9adf dcbc d044 d0bc 3742 d23a a57b f2bb
000003a0: 48ea 363c 943a 2b3d 8fe5 41bc b871 8dbc
000003b0: 8584 643b 634c eebc ace9 1abd 0286 8f3c
000003c0: 0af4 7abc ae67 d03c 256a 9abb 9b18 613c
000003d0: 8aae 063d c521 89bd 57c6 95bc 9419 22bd
000003e0: adf0 183d 5041 e1bc 136e e6bb 65c8 91bd
000003f0: 7db1 51bd 3038 cfba a239 633a 4259 94bc
0.003984924 0.04917354 -0.04875072 0.043527704 0.0065222704 0.022724507 0.03106519 -0.024347175
0.056992512 0.013075425 -0.038125917 -0.032359734 0.045503825 -0.0081865955 0.006905223 -0.0009789742
0.002278184 -0.02419381 0.03132348 0.0279775 -0.052389298 -0.06725833 -0.09867248 -0.063005924
0.03789949 -0.06132453 0.060860787 0.0071200663 -0.022827154 0.030679483 -0.0368165 0.012602606
0.018892737 -0.022753637 0.030642565 0.039585873 0.047037367 -0.045323204 -0.063421816 -0.04017064
0.0370679 -0.04629913 0.035777245 -0.049585734 0.043384027 0.06606428 0.058631174 0.03991366
0.02267088 -0.007890038 0.04797861 -0.019699875 -0.052169096 0.053692933 -0.02053487 -0.023695098
0.011512417 -0.008596472 -0.0019752474 -0.0004045777 -0.027962454 -0.042035487 0.033527583 0.010203596
0.056582853 -0.10265106 -0.058181107 0.02861082 0.02720536 -0.046012815 -0.054307733 0.06269215
-0.008902619 0.034281213 -0.062960096 -0.039574586 0.04698555 -0.02382396 -0.018088223 0.045482013
0.04133968 0.00028202793 0.034485657 -0.03581184 0.019718898 0.059705097 0.04152644 0.018561931
-0.014319343 -0.015584831 0.044373646 0.058224972 0.0340913 0.015318351 -0.018416565 0.0064312094
0.038026504 0.029573306 0.041733842 0.038000368 -0.04362048 -0.009182233 -0.05735944 -0.058253285
0.0250509 0.03605856 0.034254197 -0.034645118 0.06440315 -0.0011018179 0.052113578 0.03527544
-0.040460348 -0.04407429 0.021908298 -0.014389228 0.044023857 0.03361408 -0.027538702 0.027470015
-0.0056949942 -0.06279756 -0.0013576925 0.06758979 0.01968542 0.05516912 -0.036309265 -0.05871892
-0.029004052 -0.029558795 0.04535493 0.03077395 -0.041851606 0.02102057 0.0066197873 0.04149585
0.012465219 -0.030009098 -0.040800344 0.066310376 0.03625777 -0.04167156 0.028031943 -0.009909157
-0.00556536 0.051828373 0.022643175 0.03491816 -0.0140823 -0.044425134 -0.08326652 -0.035618044
-0.0072796117 0.05754926 0.026327197 0.015683796 0.054731343 -0.049775608 0.019088008 -0.04237193
0.0066208304 -0.06686674 -0.06643507 -0.032431785 -0.03584745 0.04827027 0.051919494 -0.026856702
0.010596633 -0.03563999 0.027809534 0.0063033835 -0.06325029 0.03183298 0.024493592 0.03365777
-0.05574984 -0.05634056 0.056944057 -0.030317608 -0.023832869 -0.04535941 -0.03766107 0.029699154
0.051096287 -0.015338296 0.023424387 0.026752584 0.013168191 -0.05892605 -0.019429093 -0.05088988
0.016967196 -0.0069034975 0.007282926 0.0042775082 -0.03869271 0.028583536 -0.028855909 0.03725955
-0.06577507 -0.017782 -0.026609618 -0.04704691 0.0049717803 -0.06330653 -0.033873916 -0.048073806
-0.05313871 0.047445707 -0.02653274 -0.021289313 -0.013036592 0.051570103 -0.041721012 0.05255281
0.020192131 0.008370984 -0.0149307335 0.027334522 0.015960192 0.0052229487 0.05105427 -0.05001986
-0.025666095 -0.056467693 -0.007927095 -0.027327893 -0.02696209 -0.025423437 0.0016041462 -0.0073999935
0.011164255 0.04180391 -0.011834516 -0.01726614 0.0034869027 -0.029089158 -0.037820503 0.017519955
-0.0153169725 0.025440063 -0.0047123604 0.013738777 0.032881297 -0.06695894 -0.018283052 -0.039575174
0.0373389 -0.027496964 -0.007032165 -0.071183 -0.051194657 -0.0015809592 0.0008667951 -0.018108968

linear2.bias f4 [256]
00000000: 7854 1cbd c943 f43c 3374 6f3c 72fa f33c
00000010: 29c7 1cbc 0b60 6b3d 2ede bdbc 00a0 883c
00000020: 3364 f7bc 7a82 0f3d d2a1 c23a 6796 b23c
00000030: b21b 41bc 30d8 523a fa80 17bd 9c0c 573d
00000040: 9b86 f5bb ef73 f2bc f547 3ebd 3ee9 29b9
00000050: 5f2b 3cbd 1791 4f3d a6d8 103d e58c 4c3b
00000060: 4f1f 7d3d 7051 2d3d fd90 95b8 2163 c13b
00000070: 0fe0 493d b5c8 8e3d f055 77bd a303 7f3d
00000080: ae80 183d 49d6 c7bc 4d05 1bbd 9c9a 333d
00000090: dd09 193d 7321 86bb 9bd7 ca3a a909 bbbc
000000a0: 1583 53bd 5f0f 843d d684 393d ddc4 ba3b
000000b0: ffe3 8b3c 7110 793d da77 013d 7ad0 d6bc
000000c0: 1549 5a3d b57b 033d 02a7 87bb 9e94 6b3b
000000d0: 30b0 76bd 1417 10bc 8dfa 443d c6b7 8abd
000000e0: 52a7 ff3b f34d 593c 51fe 13bb 15f2 b63c
000000f0: 8171 cdbb b3cf e23d 4287 c9bb 02d6 4c3c
00000100: 25ef f33c 6547 2e3d 97c9 653d 4ffd 483d
00000110: 4c81 753d 35bf 3cba 71b0 753d 6d3c 2abd
00000120: bd13 29bd 7490 523d 6699 d53c 2f43 e5bc
00000130: 4eca ef3c 6a8c 663d a695 563d e0de 113b
00000140: 0ae0 2e3d ba26 723d 78a1 8c3d 74db 9fba
00000150: 6b70 77bd 1ed1 693d 489b 50bd 0f84 423d
00000160: e0ba d8bc c050 61bc 3c0c 223d 87ee 56bd
00000170: 0251 633d 4e7b eebb 3761 43bd 129a 643c
00000180: c166 1bbb 35cc 553d a0da 39bd f3f8 223d
00000190: 4ce5 da3c 7f17 27bd 9ea3 823c 1c7c 75bd
000001a0: 0d2a 81bc a2d9 66bc 8730 3dbd c19c 4fbd
000001b0: addc 283d d7f1 a7bb fb2c 363d 5e10 89bc
000001c0: 0b5e 33bd c7a5 83bc 7001 e63b 188e 1b3c
000001d0: b407 45bc ce0d 243d 4d8a 283d b489 03bd
000001e0: 3968 0d3d b8a4 8f3c 806e 263c 6036 df3c
000001f0: 2c2a 20bd 5307 a73c 716b e43c c613 64bc
00000200: 5810 74bb 831d a83c 7edf 003d 3f57 3dbd
00000210: afc4 f53c dab7 843d dcef 2a3d 0b05 79bd
00000220: 186a 523d 099a a83d ca41 e3bb c96b 333c
00000230: 8c91 19bc 0121 e7bc 9732 61bd df13 62bc
00000240: cdbd 393d e190 cf3d 510b 153d 898a 1e3c
00000250: 01b0 6cbd 876c b3bc c325 053d e2db 003d
00000260: ecb0 eabc 00d0 eb3c 5637 5c3c 93c3 443d
00000270: fb70 56bc f8ca 86bc dfd4 353d 9814 0fbc
00000280: de7a 813d d5f8 18bc 01fd b73c a60c 8d3c
00000290: 5b03 0639 f0ec a83c 00eb 9e3b 968f 5bbc
000002a0: 615f 7d3d e8d1 31bd 4534 a93c d5a0 db3d
000002b0: bd78 acbc ef38 cb3c 62b1 df3c bd3a 153d
000002c0: db7c 8dbb 7469 66bb e8f4 ca3d 188f 003d
000002d0: 2a93 30bd 7f47 6dbd 9fcf b93c 10ca 673d
000002e0: e8c8 533c d4bf 453d 6125 dfb7 c92f 9ebc
000002f0: 5431 043c 2a0e 413d bc84 a43d e9d3 7b3c
00000300: 8d25 a3bc cb4a 093d 4fa7 b7bb c89d 723d
00000310: f22e 68bd 6cf3 613d 10f0 813c bb29 06bd
00000320: 7c61 1a3c 3320 f93b 3be1 9c3d 83cf 84bc
00000330: d992 be3c 0385 c53c 46ac 993c 0671 dd3b
00000340: af03 74bd 2ce6 11bd 72e7 3cbd ce34 393d
00000350: ed5a 0f3d 6a7b 5f3d ff8a 633d 5536 8aba
00000360: f918 09bc d1e5 4bbd 1fd9 33bd 4c8b 823d
00000370: efa7 3b3c b101 78bd 8fe9 e23c 9dad 163c
00000380: 2e3f a03c 5805 5a3d 6315 62bd 68d3 f4bb
00000390: 092c 533d 6e49 b23d 7e3f 7cbd eeee 30bb
000003a0: 0959 b93d c6ad 1e3d dde8 163d 3523 f3bc
000003b0: f30e 5b3d 77c0 dbbc df61 7b3d f3ae 7ebd
000003c0: c730 42bd f357 143d b8f3 74bd 0f3d 33bd
000003d0: 047a 873c 65a8 18ba 708e cdbb 7dad 2abd
000003e0: e387 373d 3b9a 2d3d dd16 9cbc 75b4 c1bc
000003f0: 19a5 5abd 73e9 3ebd 6335 03bd 88c7 c43c
-0.038166493 0.029817479 0.014615106 0.029782508 -0.009568968 0.05746464 -0.023177233 0.016677856
-0.030199146 0.03503654 0.0014849252 0.021800233 -0.011786388 0.00080430787 -0.036988236 0.05250226
-0.007492853 -0.029596297 -0.046455342 -0.00016203985 -0.0459398 0.050675478 0.035362862 0.003121191
0.061797436 0.042313993 -7.13188e-05 0.0059017097 0.049285945 0.069718756 -0.06038469 0.062259328
0.037232094 -0.024394171 -0.037846852 0.04384862 0.037362922 -0.004093343 0.0015475632 -0.022831755
-0.05163868 0.06448244 0.045292698 0.0056997375 0.01707649 0.060806695 0.03160844 -0.026222456
0.053292353 0.032100398 -0.004139782 0.0035946737 -0.06022662 -0.008794565 0.048090506 -0.06773333
0.0078019286 0.013263213 -0.0022582004 0.02233223 -0.0062696342 0.11074772 -0.006150157 0.012502195
0.029777119 0.042548556 0.056100454 0.0490697 0.05993776 -0.0007200123 0.05998272 -0.041561533
-0.04127859 0.051407292 0.026074123 -0.027986137 0.029271271 0.056286253 0.05238881 0.0022258088
0.04269413 0.059118964 0.06866735 -0.001219614 -0.060409945 0.057084195 -0.050929338 0.047489222
-0.026456296 -0.013752162 0.03956245 -0.05247357 0.055497177 -0.0072778827 -0.047700133 0.013952749
-0.002371237 0.0521967 -0.045374513 0.039788198 0.026720665 -0.040793892 0.01594716 -0.059932813
-0.015767122 -0.014089974 -0.046188857 -0.0506866 0.041226078 -0.005125265 0.04447649 -0.016731437
-0.04379086 -0.01607026 0.0070192143 0.009494327 -0.012025762 0.040052228 0.04114752 -0.032113746
0.034523223 0.017534599 0.010158181 0.027247608 -0.03910272 0.020389235 0.027883263 -0.01392073
-0.0037241187 0.020521885 0.03146314 -0.046225782 0.030001013 0.064803794 0.041732654 -0.060795825
0.05137071 0.08232505 -0.006935333 0.010950991 -0.00937308 -0.02821398 -0.054979887 -0.013798683
0.045347024 0.10135055 0.036387745 0.009676584 -0.057785038 -0.021902336 0.032506716 0.031459697
-0.028648816 0.028785706 0.0134409275 0.048038077 -0.01308846 -0.016454205 0.044392463 -0.008732937
0.06322263 -0.00933667 0.022459509 0.017217945 0.00012780486 0.020620793 0.0048497915 -0.013400933
0.06185854 -0.043413073 0.020654807 0.10724036 -0.021053666 0.024807421 0.027306262 0.03643297
-0.0043178624 -0.003515807 0.099099934 0.031386465 -0.043109097 -0.057929512 0.02268201 0.056589186
0.012926318 0.048278645 -2.6601077e-05 -0.019309895 0.008068401 0.04713265 0.080331296 0.015370348
-0.019915367 0.033518594 -0.0056046615 0.059232503 -0.056685396 0.055163786 0.015861541 -0.03275464
0.009422656 0.0076027154 0.07660147 -0.01621223 0.023263382 0.024111276 0.018758904 0.006757858
-0.059573825 -0.0356199 -0.04611916 0.045216374 0.034998823 0.054561056 0.05555248 -0.0010544757
-0.00836777 -0.049779717 -0.043908235 0.06374225 0.011453613 -0.060548488 0.02769926 0.009196666
0.019561376 0.053227752 -0.055196177 -0.0074714907 0.051555667 0.08705412 -0.06158399 -0.0026997882
0.09050185 0.038739942 0.03684317 -0.029679874 0.053481054 -0.026825173 0.061372634 -0.062178563
-0.0474098 0.036216687 -0.05980274 -0.043759402 0.016537674 -0.00058234326 -0.0062730834 -0.041669358
0.044807326 0.042383414 -0.01905387 -0.023645619 -0.053380106 -0.046609353 -0.032033335 0.024020925

linear3.weight f4 [1, 256]
00000000: ee5c 503b 23ae ea3c dac1 75bd 97a5 263d
00000010: a84a 2f3d 67b0 1cbd 3eb8 423d dbcf abbc
00000020: e660 853b f061 1e3d c15f b4bd 8062 43bd
00000030: 40f2 053d 44aa 843c 21bd 22bd d938 25bd
00000040: b6dd 873d 863f 38bd ad55 593d 9c90 98bd
00000050: e603 1ebd f72f 0e3c e1b5 77bd 358e 863d
00000060: 66f0 d8bc 000d a8bd 7e8d 05ba 3d52 a73c
00000070: 861f 01bd a51c 42bc f8f2 41bc 1cc8 7dbd
00000080: efec 3bbc 81a3 2f3d 30a5 dd3c 012d 163d
00000090: b85c 6bbd 9f35 313d 8d9e 65bc 6ba5 b03c
000000a0: c6cc 3f3d 23c6 76bd e62c 17bd fa15 81bd
000000b0: cdd2 f0bb 116b d13c 6ad3 253d ea0d 2ebd
000000c0: 57cb c0bd 012f 623d 7631 5cbd f919 7ebd
000000d0: 683d fcbc 7b05 3b3d c6b1 da3c 644e 213b
000000e0: 9773 653d d312 d23b 5018 853d ca4d 043c
000000f0: 3cec c83c 5493 d1bd a32d 633d e0f7 47ba
00000100: 2f56 d23c b6eb 25bc 79bd fdbc 4f8b 5e3d
00000110: cff0 85bd c006 70bc 8fd5 b63c 545e e93c
00000120: 26f4 573d 58d8 0a3e 4dad 523c af94 853d
00000130: 9668 633d c805 6a3c 8d86 7d3d b9d0 2ebd
00000140: 5cae 0bbd bac1 96bb fcb5 073d 46a7 5e3b
00000150: 1b3a 14bd 2152 40bd ed94 b2bc 1148 ecbc
00000160: 00f8 a3bc 19d3 febc e186 13bb 47c9 453c
00000170: 471e 89bd 23d3 fb3b e5b0 bc3c a018 f73c
00000180: 8af4 773d 3b2b 3ebd 854b 333d 1913 783c
00000190: 071a 76bc 6843 cbbc 1f34 88bd e1d1 bb3c
000001a0: ea5d 68bc 00f8 2c3d 5429 353b 2ac2 1fbd
000001b0: 01f0 143d 9ea2 283d 2801 a03b 194f b43c
000001c0: cf05 2c3d 0d09 3dbd bbf3 63bd c689 fbbc
000001d0: 7c37 b8bd 8f40 893d 494c 08bc 922b 2bbd
000001e0: 6038 68bd db4a 50bd aaf2 a53c 2185 ce3c
000001f0: f976 623d e61d ea3c b54c 00bd 6b79 83bd
00000200: 0b42 a5bd e603 323a 57cd 55bd cf12 463c
00000210: 4ae0 473d 72b8 96bd 043d 783c 31f6 70bd
00000220: 9ad6 0c3c ec5f babd ae7b 00bd e075 5a3d
00000230: 277a 1d3d a696 0f3b 76a5 11bd 83cf 6ebd
00000240: 27e8 4f3c 4ff5 96bd 4cf0 16ba 9b54 51bd
00000250: 9c1b e03c a0a7 f0bd 2678 29bd 537d afbd
00000260: 5339 d7ba fc02 56bd bf40 53bd 5c1f b1bd
00000270: bdfc 163c e7c0 993c 6ff4 1b3d 6a54 e6bd
00000280: 4d3d 8dbd 7374 173c 7b1e 2dbd 4a6a 3ebd
00000290: bb10 57bd 95fa c4bc cbd4 cb3c 4f57 893d
000002a0: 5316 5e3d ebe5 403d 57a5 583c b164 2abd
000002b0: c5ff 683d 8c9d 89b9 9583 813c 9dbf f83c
000002c0: ad65 3dbd b619 e3ba 741f bebd f3b2 e43c
000002d0: d85d 453d 2a3c 0e3d b541 44bd 823a 14bd
000002e0: 6dae 153d c09f 373d e7a9 cfbd 1cd1 493d
000002f0: b133 593c 4ad0 e4bc 1e17 67bd f3ba 93bd
00000300: 0a1c f73c 9465 5fbd 465f 81bc df80 dcbd
00000310: 903b 113a 6cc7 bc3c e65c 883c bf92 353d
00000320: d4ce 0a3d 848e 233c c1c6 2cbd 4ed3 44bd
00000330: 0a5a c03b 5e04 6fbd 47de 9a3b c301 1b3d
00000340: e770 673d b211 6cbd ba20 033d 5263 133d
00000350: 0991 94bb d090 a83c 098b 043d 8ef0 43bd
00000360: 7ebe 14bd 1ccd 86bb 9b1a 893d 1dfa c0bd
00000370: 14fb 003d 748e 463d 6890 3d3d fa19 2ebc
00000380: 2c52 a93c 9cbd 613d 2b1c 49bd 9984 a23c
00000390: 2e10 f13a 5e60 d6bd 51e9 16bd 2e91 80bd
000003a0: 6f6b 5fbd 254e 0c3b d8ee 5abd ebf6 67bd
000003b0: 1077 543d f2b9 23bd f960 123d 5aa6 1bbc
000003c0: e3c6 123d 8018 023d 305e 2ebd adc6 30bc
000003d0: 47cc aebd 5e9a 1dbc 5c8e 63bd 2e0d 093d
000003e0: 6f8e 09bd 17da f03c 4bf2 3a3d 40b4 5b3d
000003f0: d5c6 3ebd f1dc b7ba 2d7c 10bd 961b 833c
0.0031793672 0.028647488 -0.059999324 0.040685263 0.042795807 -0.038254168 0.04753899 -0.020973137
0.004070389 0.03866762 -0.08807326 -0.04770136 0.03270173 0.01619447 -0.03973115 -0.040337417
0.06634085 -0.044982456 0.053060222 -0.07449457 -0.038577937 0.008678428 -0.060476188 0.065700926
-0.026481818 -0.082056046 -0.00050946313 0.020424956 -0.031524204 -0.01184765 -0.011837713 -0.061958417
-0.011470064 0.04288054 0.027056307 0.036664013 -0.05746147 0.043264028 -0.014014852 0.021563252
0.046826147 -0.06024755 -0.036908053 -0.0630302 -0.007349348 0.025563749 0.040484823 -0.04249374
-0.09413784 0.055220608 -0.053758107 -0.06203649 -0.030791 0.045659523 0.026696097 0.0024613375
0.05601844 0.0064109354 0.06498778 0.008075187 0.024526708 -0.10233179 0.055463444 -0.0007628184
0.025675861 -0.010126999 -0.030974137 0.054332074 -0.06540071 -0.014650047 0.02231863 0.028487362
0.052723072 0.13559091 0.012858701 0.065225 0.055519663 0.014283605 0.061895896 -0.042679522
-0.03410183 -0.0046007307 0.03313254 0.0033974214 -0.036188226 -0.046953324 -0.021799529 -0.028842958
-0.020015717 -0.031106519 -0.0022510814 0.012071914 -0.06695228 0.0076850816 0.023033569 0.03016311
0.060535945 -0.046427947 0.043773193 0.015141272 -0.015020854 -0.024812415 -0.06650566 0.022927226
-0.014182547 0.0422287 0.0027643042 -0.03900353 0.036361698 0.04117071 0.0048829503 0.022010373
0.041997727 -0.04615121 -0.05565236 -0.030705344 -0.08994958 0.06701767 -0.008318969 -0.0417896
-0.05669439 -0.050852638 0.020257313 0.025209965 0.055289242 0.02857871 -0.031323154 -0.06419643
-0.08069237 0.0006790742 -0.05219778 0.012089445 0.048797883 -0.07359399 0.015151266 -0.058828536
0.008596087 -0.09100327 -0.03136795 0.05333507 0.03844657 0.0021909862 -0.035558186 -0.058303367
0.012689627 -0.07371008 -0.0005757853 -0.051106077 0.027356915 -0.11750722 -0.041374348 -0.085688256
-0.0016420282 -0.05224894 -0.05157542 -0.086485595 0.009215531 0.01876874 0.038074907 -0.112465695
-0.06896458 0.009244072 -0.042265397 -0.046488084 -0.05250619 -0.024045268 0.024881741 0.06706106
0.05422051 0.047094267 0.013223014 -0.041599933 0.056884546 -0.00026248058 0.015809814 0.030364806
-0.046239544 -0.0017326388 -0.09283343 0.02791736 0.0481852 0.034725346 -0.047914226 -0.03618861
0.0365433 0.044830084 -0.10139828 0.049271688 0.013256953 -0.027931351 -0.05641853 -0.07213392
0.030164737 -0.05454023 -0.0157925 -0.10766768 0.00055401865 0.02304431 0.01664586 0.0443294
0.033888653 0.009982709 -0.042181734 -0.04805308 0.0058701085 -0.058353774 0.0047262046 0.037843477
0.056504156 -0.057634063 0.032013632 0.03598339 -0.004533891 0.020576864 0.032359157 -0.047836833
-0.03631448 -0.0041138064 0.06694528 -0.09422705 0.031489447 0.048475698 0.046280295 -0.0106263105
0.020669065 0.055112466 -0.04909913 0.019838618 0.0018391663 -0.10467599 -0.0368436 -0.06277691
-0.054545816 0.0021408882 -0.053450435 -0.056631964 0.05187136 -0.039972253 0.03573701 -0.0095001105
0.035834204 0.031761646 -0.042570293 -0.0107895555 -0.085350566 -0.009619324 -0.055555686 0.033459835
-0.0335831 0.029400868 0.045641225 0.053638697 -0.04657634 -0.0014027638 -0.035274673 0.016004365
